…
I0422 19:39:10.030282 1975033856 net.cpp:294] The NetState phase (0) differed from the phase (1) specified by a rule in layer loss3/top-5
I0422 19:39:10.030285 1975033856 net.cpp:51] Initializing net from parameters: 
name: "DogNet"
state {
  phase: TRAIN
  level: 0
  stage: ""
}
layer {
  name: "data"
  type: "Data"
  top: "data"
  top: "label"
  include {
    phase: TRAIN
  }
  transform_param {
    mirror: true
    crop_size: 224
    mean_file: "/Users/pompy/dog_judge/mean.binaryproto"
  }
  data_param {
    source: "/Users/pompy/dog_judge/img_train_lmdb"
    batch_size: 100
    backend: LMDB
  }
}
layer {
  name: "conv1/7x7_s2"
  type: "Convolution"
  bottom: "data"
  top: "conv1/7x7_s2"
  param {
    lr_mult: 1
    decay_mult: 1
  }
  param {
    lr_mult: 2
    decay_mult: 0
  }
  convolution_param {
    num_output: 64
    pad: 3
    kernel_size: 7
    stride: 2
    weight_filler {
      type: "xavier"
    }
    bias_filler {
      type: "constant"
      value: 0.2
    }
  }
}
layer {
  name: "conv1/relu_7x7"
  type: "ReLU"
  bottom: "conv1/7x7_s2"
  top: "conv1/7x7_s2"
}
layer {
  name: "pool1/3x3_s2"
  type: "Pooling"
  bottom: "conv1/7x7_s2"
  top: "pool1/3x3_s2"
  pooling_param {
    pool: MAX
    kernel_size: 3
    stride: 2
  }
}
layer {
  name: "pool1/norm1"
  type: "LRN"
  bottom: "pool1/3x3_s2"
  top: "pool1/norm1"
  lrn_param {
    local_size: 5
    alpha: 0.0001
    beta: 0.75
  }
}
layer {
  name: "conv2/3x3_reduce"
  type: "Convolution"
  bottom: "pool1/norm1"
  top: "conv2/3x3_reduce"
  param {
    lr_mult: 1
    decay_mult: 1
  }
  param {
    lr_mult: 2
    decay_mult: 0
  }
  convolution_param {
    num_output: 64
    kernel_size: 1
    weight_filler {
      type: "xavier"
    }
    bias_filler {
      type: "constant"
      value: 0.2
    }
  }
}
layer {
  name: "conv2/relu_3x3_reduce"
  type: "ReLU"
  bottom: "conv2/3x3_reduce"
  top: "conv2/3x3_reduce"
}
layer {
  name: "conv2/3x3"
  type: "Convolution"
  bottom: "conv2/3x3_reduce"
  top: "conv2/3x3"
  param {
    lr_mult: 1
    decay_mult: 1
  }
  param {
    lr_mult: 2
    decay_mult: 0
  }
  convolution_param {
    num_output: 192
    pad: 1
    kernel_size: 3
    weight_filler {
      type: "xavier"
    }
    bias_filler {
      type: "constant"
      value: 0.2
    }
  }
}
layer {
  name: "conv2/relu_3x3"
  type: "ReLU"
  bottom: "conv2/3x3"
  top: "conv2/3x3"
}
layer {
  name: "conv2/norm2"
  type: "LRN"
  bottom: "conv2/3x3"
  top: "conv2/norm2"
  lrn_param {
    local_size: 5
    alpha: 0.0001
    beta: 0.75
  }
}
layer {
  name: "pool2/3x3_s2"
  type: "Pooling"
  bottom: "conv2/norm2"
  top: "pool2/3x3_s2"
  pooling_param {
    pool: MAX
    kernel_size: 3
    stride: 2
  }
}
layer {
  name: "inception_3a/1x1"
  type: "Convolution"
  bottom: "pool2/3x3_s2"
  top: "inception_3a/1x1"
  param {
    lr_mult: 1
    decay_mult: 1
  }
  param {
    lr_mult: 2
    decay_mult: 0
  }
  convolution_param {
    num_output: 64
    kernel_size: 1
    weight_filler {
      type: "xavier"
    }
    bias_filler {
      type: "constant"
      value: 0.2
    }
  }
}
layer {
  name: "inception_3a/relu_1x1"
  type: "ReLU"
  bottom: "inception_3a/1x1"
  top: "inception_3a/1x1"
}
layer {
  name: "inception_3a/3x3_reduce"
  type: "Convolution"
  bottom: "pool2/3x3_s2"
  top: "inception_3a/3x3_reduce"
  param {
    lr_mult: 1
    decay_mult: 1
  }
  param {
    lr_mult: 2
    decay_mult: 0
  }
  convolution_param {
    num_output: 96
    kernel_size: 1
    weight_filler {
      type: "xavier"
    }
    bias_filler {
      type: "constant"
      value: 0.2
    }
  }
}
layer {
  name: "inception_3a/relu_3x3_reduce"
  type: "ReLU"
  bottom: "inception_3a/3x3_reduce"
  top: "inception_3a/3x3_reduce"
}
layer {
  name: "inception_3a/3x3"
  type: "Convolution"
  bottom: "inception_3a/3x3_reduce"
  top: "inception_3a/3x3"
  param {
    lr_mult: 1
    decay_mult: 1
  }
  param {
    lr_mult: 2
    decay_mult: 0
  }
  convolution_param {
    num_output: 128
    pad: 1
    kernel_size: 3
    weight_filler {
      type: "xavier"
    }
    bias_filler {
      type: "constant"
      value: 0.2
    }
  }
}
layer {
  name: "inception_3a/relu_3x3"
  type: "ReLU"
  bottom: "inception_3a/3x3"
  top: "inception_3a/3x3"
}
layer {
  name: "inception_3a/5x5_reduce"
  type: "Convolution"
  bottom: "pool2/3x3_s2"
  top: "inception_3a/5x5_reduce"
  param {
    lr_mult: 1
    decay_mult: 1
  }
  param {
    lr_mult: 2
    decay_mult: 0
  }
  convolution_param {
    num_output: 16
    kernel_size: 1
    weight_filler {
      type: "xavier"
    }
    bias_filler {
      type: "constant"
      value: 0.2
    }
  }
}
layer {
  name: "inception_3a/relu_5x5_reduce"
  type: "ReLU"
  bottom: "inception_3a/5x5_reduce"
  top: "inception_3a/5x5_reduce"
}
layer {
  name: "inception_3a/5x5"
  type: "Convolution"
  bottom: "inception_3a/5x5_reduce"
  top: "inception_3a/5x5"
  param {
    lr_mult: 1
    decay_mult: 1
  }
  param {
    lr_mult: 2
    decay_mult: 0
  }
  convolution_param {
    num_output: 32
    pad: 2
    kernel_size: 5
    weight_filler {
      type: "xavier"
    }
    bias_filler {
      type: "constant"
      value: 0.2
    }
  }
}
layer {
  name: "inception_3a/relu_5x5"
  type: "ReLU"
  bottom: "inception_3a/5x5"
  top: "inception_3a/5x5"
}
layer {
  name: "inception_3a/pool"
  type: "Pooling"
  bottom: "pool2/3x3_s2"
  top: "inception_3a/pool"
  pooling_param {
    pool: MAX
    kernel_size: 3
    stride: 1
    pad: 1
  }
}
layer {
  name: "inception_3a/pool_proj"
  type: "Convolution"
  bottom: "inception_3a/pool"
  top: "inception_3a/pool_proj"
  param {
    lr_mult: 1
    decay_mult: 1
  }
  param {
    lr_mult: 2
    decay_mult: 0
  }
  convolution_param {
    num_output: 32
    kernel_size: 1
    weight_filler {
      type: "xavier"
    }
    bias_filler {
      type: "constant"
      value: 0.2
    }
  }
}
layer {
  name: "inception_3a/relu_pool_proj"
  type: "ReLU"
  bottom: "inception_3a/pool_proj"
  top: "inception_3a/pool_proj"
}
layer {
  name: "inception_3a/output"
  type: "Concat"
  bottom: "inception_3a/1x1"
  bottom: "inception_3a/3x3"
  bottom: "inception_3a/5x5"
  bottom: "inception_3a/pool_proj"
  top: "inception_3a/output"
}
layer {
  name: "inception_3b/1x1"
  type: "Convolution"
  bottom: "inception_3a/output"
  top: "inception_3b/1x1"
  param {
    lr_mult: 1
    decay_mult: 1
  }
  param {
    lr_mult: 2
    decay_mult: 0
  }
  convolution_param {
    num_output: 128
    kernel_size: 1
    weight_filler {
      type: "xavier"
    }
    bias_filler {
      type: "constant"
      value: 0.2
    }
  }
}
layer {
  name: "inception_3b/relu_1x1"
  type: "ReLU"
  bottom: "inception_3b/1x1"
  top: "inception_3b/1x1"
}
layer {
  name: "inception_3b/3x3_reduce"
  type: "Convolution"
  bottom: "inception_3a/output"
  top: "inception_3b/3x3_reduce"
  param {
    lr_mult: 1
    decay_mult: 1
  }
  param {
    lr_mult: 2
    decay_mult: 0
  }
  convolution_param {
    num_output: 128
    kernel_size: 1
    weight_filler {
      type: "xavier"
    }
    bias_filler {
      type: "constant"
      value: 0.2
    }
  }
}
layer {
  name: "inception_3b/relu_3x3_reduce"
  type: "ReLU"
  bottom: "inception_3b/3x3_reduce"
  top: "inception_3b/3x3_reduce"
}
layer {
  name: "inception_3b/3x3"
  type: "Convolution"
  bottom: "inception_3b/3x3_reduce"
  top: "inception_3b/3x3"
  param {
    lr_mult: 1
    decay_mult: 1
  }
  param {
    lr_mult: 2
    decay_mult: 0
  }
  convolution_param {
    num_output: 192
    pad: 1
    kernel_size: 3
    weight_filler {
      type: "xavier"
    }
    bias_filler {
      type: "constant"
      value: 0.2
    }
  }
}
layer {
  name: "inception_3b/relu_3x3"
  type: "ReLU"
  bottom: "inception_3b/3x3"
  top: "inception_3b/3x3"
}
layer {
  name: "inception_3b/5x5_reduce"
  type: "Convolution"
  bottom: "inception_3a/output"
  top: "inception_3b/5x5_reduce"
  param {
    lr_mult: 1
    decay_mult: 1
  }
  param {
    lr_mult: 2
    decay_mult: 0
  }
  convolution_param {
    num_output: 32
    kernel_size: 1
    weight_filler {
      type: "xavier"
    }
    bias_filler {
      type: "constant"
      value: 0.2
    }
  }
}
layer {
  name: "inception_3b/relu_5x5_reduce"
  type: "ReLU"
  bottom: "inception_3b/5x5_reduce"
  top: "inception_3b/5x5_reduce"
}
layer {
  name: "inception_3b/5x5"
  type: "Convolution"
  bottom: "inception_3b/5x5_reduce"
  top: "inception_3b/5x5"
  param {
    lr_mult: 1
    decay_mult: 1
  }
  param {
    lr_mult: 2
    decay_mult: 0
  }
  convolution_param {
    num_output: 96
    pad: 2
    kernel_size: 5
    weight_filler {
      type: "xavier"
    }
    bias_filler {
      type: "constant"
      value: 0.2
    }
  }
}
layer {
  name: "inception_3b/relu_5x5"
  type: "ReLU"
  bottom: "inception_3b/5x5"
  top: "inception_3b/5x5"
}
layer {
  name: "inception_3b/pool"
  type: "Pooling"
  bottom: "inception_3a/output"
  top: "inception_3b/pool"
  pooling_param {
    pool: MAX
    kernel_size: 3
    stride: 1
    pad: 1
  }
}
layer {
  name: "inception_3b/pool_proj"
  type: "Convolution"
  bottom: "inception_3b/pool"
  top: "inception_3b/pool_proj"
  param {
    lr_mult: 1
    decay_mult: 1
  }
  param {
    lr_mult: 2
    decay_mult: 0
  }
  convolution_param {
    num_output: 64
    kernel_size: 1
    weight_filler {
      type: "xavier"
    }
    bias_filler {
      type: "constant"
      value: 0.2
    }
  }
}
layer {
  name: "inception_3b/relu_pool_proj"
  type: "ReLU"
  bottom: "inception_3b/pool_proj"
  top: "inception_3b/pool_proj"
}
layer {
  name: "inception_3b/output"
  type: "Concat"
  bottom: "inception_3b/1x1"
  bottom: "inception_3b/3x3"
  bottom: "inception_3b/5x5"
  bottom: "inception_3b/pool_proj"
  top: "inception_3b/output"
}
layer {
  name: "pool3/3x3_s2"
  type: "Pooling"
  bottom: "inception_3b/output"
  top: "pool3/3x3_s2"
  pooling_param {
    pool: MAX
    kernel_size: 3
    stride: 2
  }
}
layer {
  name: "inception_4a/1x1"
  type: "Convolution"
  bottom: "pool3/3x3_s2"
  top: "inception_4a/1x1"
  param {
    lr_mult: 1
    decay_mult: 1
  }
  param {
    lr_mult: 2
    decay_mult: 0
  }
  convolution_param {
    num_output: 192
    kernel_size: 1
    weight_filler {
      type: "xavier"
    }
    bias_filler {
      type: "constant"
      value: 0.2
    }
  }
}
layer {
  name: "inception_4a/relu_1x1"
  type: "ReLU"
  bottom: "inception_4a/1x1"
  top: "inception_4a/1x1"
}
layer {
  name: "inception_4a/3x3_reduce"
  type: "Convolution"
  bottom: "pool3/3x3_s2"
  top: "inception_4a/3x3_reduce"
  param {
    lr_mult: 1
    decay_mult: 1
  }
  param {
    lr_mult: 2
    decay_mult: 0
  }
  convolution_param {
    num_output: 96
    kernel_size: 1
    weight_filler {
      type: "xavier"
    }
    bias_filler {
      type: "constant"
      value: 0.2
    }
  }
}
layer {
  name: "inception_4a/relu_3x3_reduce"
  type: "ReLU"
  bottom: "inception_4a/3x3_reduce"
  top: "inception_4a/3x3_reduce"
}
layer {
  name: "inception_4a/3x3"
  type: "Convolution"
  bottom: "inception_4a/3x3_reduce"
  top: "inception_4a/3x3"
  param {
    lr_mult: 1
    decay_mult: 1
  }
  param {
    lr_mult: 2
    decay_mult: 0
  }
  convolution_param {
    num_output: 208
    pad: 1
    kernel_size: 3
    weight_filler {
      type: "xavier"
    }
    bias_filler {
      type: "constant"
      value: 0.2
    }
  }
}
layer {
  name: "inception_4a/relu_3x3"
  type: "ReLU"
  bottom: "inception_4a/3x3"
  top: "inception_4a/3x3"
}
layer {
  name: "inception_4a/5x5_reduce"
  type: "Convolution"
  bottom: "pool3/3x3_s2"
  top: "inception_4a/5x5_reduce"
  param {
    lr_mult: 1
    decay_mult: 1
  }
  param {
    lr_mult: 2
    decay_mult: 0
  }
  convolution_param {
    num_output: 16
    kernel_size: 1
    weight_filler {
      type: "xavier"
    }
    bias_filler {
      type: "constant"
      value: 0.2
    }
  }
}
layer {
  name: "inception_4a/relu_5x5_reduce"
  type: "ReLU"
  bottom: "inception_4a/5x5_reduce"
  top: "inception_4a/5x5_reduce"
}
layer {
  name: "inception_4a/5x5"
  type: "Convolution"
  bottom: "inception_4a/5x5_reduce"
  top: "inception_4a/5x5"
  param {
    lr_mult: 1
    decay_mult: 1
  }
  param {
    lr_mult: 2
    decay_mult: 0
  }
  convolution_param {
    num_output: 48
    pad: 2
    kernel_size: 5
    weight_filler {
      type: "xavier"
    }
    bias_filler {
      type: "constant"
      value: 0.2
    }
  }
}
layer {
  name: "inception_4a/relu_5x5"
  type: "ReLU"
  bottom: "inception_4a/5x5"
  top: "inception_4a/5x5"
}
layer {
  name: "inception_4a/pool"
  type: "Pooling"
  bottom: "pool3/3x3_s2"
  top: "inception_4a/pool"
  pooling_param {
    pool: MAX
    kernel_size: 3
    stride: 1
    pad: 1
  }
}
layer {
  name: "inception_4a/pool_proj"
  type: "Convolution"
  bottom: "inception_4a/pool"
  top: "inception_4a/pool_proj"
  param {
    lr_mult: 1
    decay_mult: 1
  }
  param {
    lr_mult: 2
    decay_mult: 0
  }
  convolution_param {
    num_output: 64
    kernel_size: 1
    weight_filler {
      type: "xavier"
    }
    bias_filler {
      type: "constant"
      value: 0.2
    }
  }
}
layer {
  name: "inception_4a/relu_pool_proj"
  type: "ReLU"
  bottom: "inception_4a/pool_proj"
  top: "inception_4a/pool_proj"
}
layer {
  name: "inception_4a/output"
  type: "Concat"
  bottom: "inception_4a/1x1"
  bottom: "inception_4a/3x3"
  bottom: "inception_4a/5x5"
  bottom: "inception_4a/pool_proj"
  top: "inception_4a/output"
}
layer {
  name: "loss1/ave_pool"
  type: "Pooling"
  bottom: "inception_4a/output"
  top: "loss1/ave_pool"
  pooling_param {
    pool: AVE
    kernel_size: 5
    stride: 3
  }
}
layer {
  name: "loss1/conv"
  type: "Convolution"
  bottom: "loss1/ave_pool"
  top: "loss1/conv"
  param {
    lr_mult: 1
    decay_mult: 1
  }
  param {
    lr_mult: 2
    decay_mult: 0
  }
  convolution_param {
    num_output: 128
    kernel_size: 1
    weight_filler {
      type: "xavier"
    }
    bias_filler {
      type: "constant"
      value: 0.2
    }
  }
}
layer {
  name: "loss1/relu_conv"
  type: "ReLU"
  bottom: "loss1/conv"
  top: "loss1/conv"
}
layer {
  name: "loss1/fc"
  type: "InnerProduct"
  bottom: "loss1/conv"
  top: "loss1/fc"
  param {
    lr_mult: 1
    decay_mult: 1
  }
  param {
    lr_mult: 2
    decay_mult: 0
  }
  inner_product_param {
    num_output: 1024
    weight_filler {
      type: "xavier"
    }
    bias_filler {
      type: "constant"
      value: 0.2
    }
  }
}
layer {
  name: "loss1/relu_fc"
  type: "ReLU"
  bottom: "loss1/fc"
  top: "loss1/fc"
}
layer {
  name: "loss1/drop_fc"
  type: "Dropout"
  bottom: "loss1/fc"
  top: "loss1/fc"
  dropout_param {
    dropout_ratio: 0.7
  }
}
layer {
  name: "loss1/classifier"
  type: "InnerProduct"
  bottom: "loss1/fc"
  top: "loss1/classifier"
  param {
    lr_mult: 1
    decay_mult: 1
  }
  param {
    lr_mult: 2
    decay_mult: 0
  }
  inner_product_param {
    num_output: 1000
    weight_filler {
      type: "xavier"
    }
    bias_filler {
      type: "constant"
      value: 0
    }
  }
}
layer {
  name: "loss1/loss"
  type: "SoftmaxWithLoss"
  bottom: "loss1/classifier"
  bottom: "label"
  top: "loss1/loss1"
  loss_weight: 0.3
}
layer {
  name: "inception_4b/1x1"
  type: "Convolution"
  bottom: "inception_4a/output"
  top: "inception_4b/1x1"
  param {
    lr_mult: 1
    decay_mult: 1
  }
  param {
    lr_mult: 2
    decay_mult: 0
  }
  convolution_param {
    num_output: 160
    kernel_size: 1
    weight_filler {
      type: "xavier"
    }
    bias_filler {
      type: "constant"
      value: 0.2
    }
  }
}
layer {
  name: "inception_4b/relu_1x1"
  type: "ReLU"
  bottom: "inception_4b/1x1"
  top: "inception_4b/1x1"
}
layer {
  name: "inception_4b/3x3_reduce"
  type: "Convolution"
  bottom: "inception_4a/output"
  top: "inception_4b/3x3_reduce"
  param {
    lr_mult: 1
    decay_mult: 1
  }
  param {
    lr_mult: 2
    decay_mult: 0
  }
  convolution_param {
    num_output: 112
    kernel_size: 1
    weight_filler {
      type: "xavier"
    }
    bias_filler {
      type: "constant"
      value: 0.2
    }
  }
}
layer {
  name: "inception_4b/relu_3x3_reduce"
  type: "ReLU"
  bottom: "inception_4b/3x3_reduce"
  top: "inception_4b/3x3_reduce"
}
layer {
  name: "inception_4b/3x3"
  type: "Convolution"
  bottom: "inception_4b/3x3_reduce"
  top: "inception_4b/3x3"
  param {
    lr_mult: 1
    decay_mult: 1
  }
  param {
    lr_mult: 2
    decay_mult: 0
  }
  convolution_param {
    num_output: 224
    pad: 1
    kernel_size: 3
    weight_filler {
      type: "xavier"
    }
    bias_filler {
      type: "constant"
      value: 0.2
    }
  }
}
layer {
  name: "inception_4b/relu_3x3"
  type: "ReLU"
  bottom: "inception_4b/3x3"
  top: "inception_4b/3x3"
}
layer {
  name: "inception_4b/5x5_reduce"
  type: "Convolution"
  bottom: "inception_4a/output"
  top: "inception_4b/5x5_reduce"
  param {
    lr_mult: 1
    decay_mult: 1
  }
  param {
    lr_mult: 2
    decay_mult: 0
  }
  convolution_param {
    num_output: 24
    kernel_size: 1
    weight_filler {
      type: "xavier"
    }
    bias_filler {
      type: "constant"
      value: 0.2
    }
  }
}
layer {
  name: "inception_4b/relu_5x5_reduce"
  type: "ReLU"
  bottom: "inception_4b/5x5_reduce"
  top: "inception_4b/5x5_reduce"
}
layer {
  name: "inception_4b/5x5"
  type: "Convolution"
  bottom: "inception_4b/5x5_reduce"
  top: "inception_4b/5x5"
  param {
    lr_mult: 1
    decay_mult: 1
  }
  param {
    lr_mult: 2
    decay_mult: 0
  }
  convolution_param {
    num_output: 64
    pad: 2
    kernel_size: 5
    weight_filler {
      type: "xavier"
    }
    bias_filler {
      type: "constant"
      value: 0.2
    }
  }
}
layer {
  name: "inception_4b/relu_5x5"
  type: "ReLU"
  bottom: "inception_4b/5x5"
  top: "inception_4b/5x5"
}
layer {
  name: "inception_4b/pool"
  type: "Pooling"
  bottom: "inception_4a/output"
  top: "inception_4b/pool"
  pooling_param {
    pool: MAX
    kernel_size: 3
    stride: 1
    pad: 1
  }
}
layer {
  name: "inception_4b/pool_proj"
  type: "Convolution"
  bottom: "inception_4b/pool"
  top: "inception_4b/pool_proj"
  param {
    lr_mult: 1
    decay_mult: 1
  }
  param {
    lr_mult: 2
    decay_mult: 0
  }
  convolution_param {
    num_output: 64
    kernel_size: 1
    weight_filler {
      type: "xavier"
    }
    bias_filler {
      type: "constant"
      value: 0.2
    }
  }
}
layer {
  name: "inception_4b/relu_pool_proj"
  type: "ReLU"
  bottom: "inception_4b/pool_proj"
  top: "inception_4b/pool_proj"
}
layer {
  name: "inception_4b/output"
  type: "Concat"
  bottom: "inception_4b/1x1"
  bottom: "inception_4b/3x3"
  bottom: "inception_4b/5x5"
  bottom: "inception_4b/pool_proj"
  top: "inception_4b/output"
}
layer {
  name: "inception_4c/1x1"
  type: "Convolution"
  bottom: "inception_4b/output"
  top: "inception_4c/1x1"
  param {
    lr_mult: 1
    decay_mult: 1
  }
  param {
    lr_mult: 2
    decay_mult: 0
  }
  convolution_param {
    num_output: 128
    kernel_size: 1
    weight_filler {
      type: "xavier"
    }
    bias_filler {
      type: "constant"
      value: 0.2
    }
  }
}
layer {
  name: "inception_4c/relu_1x1"
  type: "ReLU"
  bottom: "inception_4c/1x1"
  top: "inception_4c/1x1"
}
layer {
  name: "inception_4c/3x3_reduce"
  type: "Convolution"
  bottom: "inception_4b/output"
  top: "inception_4c/3x3_reduce"
  param {
    lr_mult: 1
    decay_mult: 1
  }
  param {
    lr_mult: 2
    decay_mult: 0
  }
  convolution_param {
    num_output: 128
    kernel_size: 1
    weight_filler {
      type: "xavier"
    }
    bias_filler {
      type: "constant"
      value: 0.2
    }
  }
}
layer {
  name: "inception_4c/relu_3x3_reduce"
  type: "ReLU"
  bottom: "inception_4c/3x3_reduce"
  top: "inception_4c/3x3_reduce"
}
layer {
  name: "inception_4c/3x3"
  type: "Convolution"
  bottom: "inception_4c/3x3_reduce"
  top: "inception_4c/3x3"
  param {
    lr_mult: 1
    decay_mult: 1
  }
  param {
    lr_mult: 2
    decay_mult: 0
  }
  convolution_param {
    num_output: 256
    pad: 1
    kernel_size: 3
    weight_filler {
      type: "xavier"
    }
    bias_filler {
      type: "constant"
      value: 0.2
    }
  }
}
layer {
  name: "inception_4c/relu_3x3"
  type: "ReLU"
  bottom: "inception_4c/3x3"
  top: "inception_4c/3x3"
}
layer {
  name: "inception_4c/5x5_reduce"
  type: "Convolution"
  bottom: "inception_4b/output"
  top: "inception_4c/5x5_reduce"
  param {
    lr_mult: 1
    decay_mult: 1
  }
  param {
    lr_mult: 2
    decay_mult: 0
  }
  convolution_param {
    num_output: 24
    kernel_size: 1
    weight_filler {
      type: "xavier"
    }
    bias_filler {
      type: "constant"
      value: 0.2
    }
  }
}
layer {
  name: "inception_4c/relu_5x5_reduce"
  type: "ReLU"
  bottom: "inception_4c/5x5_reduce"
  top: "inception_4c/5x5_reduce"
}
layer {
  name: "inception_4c/5x5"
  type: "Convolution"
  bottom: "inception_4c/5x5_reduce"
  top: "inception_4c/5x5"
  param {
    lr_mult: 1
    decay_mult: 1
  }
  param {
    lr_mult: 2
    decay_mult: 0
  }
  convolution_param {
    num_output: 64
    pad: 2
    kernel_size: 5
    weight_filler {
      type: "xavier"
    }
    bias_filler {
      type: "constant"
      value: 0.2
    }
  }
}
layer {
  name: "inception_4c/relu_5x5"
  type: "ReLU"
  bottom: "inception_4c/5x5"
  top: "inception_4c/5x5"
}
layer {
  name: "inception_4c/pool"
  type: "Pooling"
  bottom: "inception_4b/output"
  top: "inception_4c/pool"
  pooling_param {
    pool: MAX
    kernel_size: 3
    stride: 1
    pad: 1
  }
}
layer {
  name: "inception_4c/pool_proj"
  type: "Convolution"
  bottom: "inception_4c/pool"
  top: "inception_4c/pool_proj"
  param {
    lr_mult: 1
    decay_mult: 1
  }
  param {
    lr_mult: 2
    decay_mult: 0
  }
  convolution_param {
    num_output: 64
    kernel_size: 1
    weight_filler {
      type: "xavier"
    }
    bias_filler {
      type: "constant"
      value: 0.2
    }
  }
}
layer {
  name: "inception_4c/relu_pool_proj"
  type: "ReLU"
  bottom: "inception_4c/pool_proj"
  top: "inception_4c/pool_proj"
}
layer {
  name: "inception_4c/output"
  type: "Concat"
  bottom: "inception_4c/1x1"
  bottom: "inception_4c/3x3"
  bottom: "inception_4c/5x5"
  bottom: "inception_4c/pool_proj"
  top: "inception_4c/output"
}
layer {
  name: "inception_4d/1x1"
  type: "Convolution"
  bottom: "inception_4c/output"
  top: "inception_4d/1x1"
  param {
    lr_mult: 1
    decay_mult: 1
  }
  param {
    lr_mult: 2
    decay_mult: 0
  }
  convolution_param {
    num_output: 112
    kernel_size: 1
    weight_filler {
      type: "xavier"
    }
    bias_filler {
      type: "constant"
      value: 0.2
    }
  }
}
layer {
  name: "inception_4d/relu_1x1"
  type: "ReLU"
  bottom: "inception_4d/1x1"
  top: "inception_4d/1x1"
}
layer {
  name: "inception_4d/3x3_reduce"
  type: "Convolution"
  bottom: "inception_4c/output"
  top: "inception_4d/3x3_reduce"
  param {
    lr_mult: 1
    decay_mult: 1
  }
  param {
    lr_mult: 2
    decay_mult: 0
  }
  convolution_param {
    num_output: 144
    kernel_size: 1
    weight_filler {
      type: "xavier"
    }
    bias_filler {
      type: "constant"
      value: 0.2
    }
  }
}
layer {
  name: "inception_4d/relu_3x3_reduce"
  type: "ReLU"
  bottom: "inception_4d/3x3_reduce"
  top: "inception_4d/3x3_reduce"
}
layer {
  name: "inception_4d/3x3"
  type: "Convolution"
  bottom: "inception_4d/3x3_reduce"
  top: "inception_4d/3x3"
  param {
    lr_mult: 1
    decay_mult: 1
  }
  param {
    lr_mult: 2
    decay_mult: 0
  }
  convolution_param {
    num_output: 288
    pad: 1
    kernel_size: 3
    weight_filler {
      type: "xavier"
    }
    bias_filler {
      type: "constant"
      value: 0.2
    }
  }
}
layer {
  name: "inception_4d/relu_3x3"
  type: "ReLU"
  bottom: "inception_4d/3x3"
  top: "inception_4d/3x3"
}
layer {
  name: "inception_4d/5x5_reduce"
  type: "Convolution"
  bottom: "inception_4c/output"
  top: "inception_4d/5x5_reduce"
  param {
    lr_mult: 1
    decay_mult: 1
  }
  param {
    lr_mult: 2
    decay_mult: 0
  }
  convolution_param {
    num_output: 32
    kernel_size: 1
    weight_filler {
      type: "xavier"
    }
    bias_filler {
      type: "constant"
      value: 0.2
    }
  }
}
layer {
  name: "inception_4d/relu_5x5_reduce"
  type: "ReLU"
  bottom: "inception_4d/5x5_reduce"
  top: "inception_4d/5x5_reduce"
}
layer {
  name: "inception_4d/5x5"
  type: "Convolution"
  bottom: "inception_4d/5x5_reduce"
  top: "inception_4d/5x5"
  param {
    lr_mult: 1
    decay_mult: 1
  }
  param {
    lr_mult: 2
    decay_mult: 0
  }
  convolution_param {
    num_output: 64
    pad: 2
    kernel_size: 5
    weight_filler {
      type: "xavier"
    }
    bias_filler {
      type: "constant"
      value: 0.2
    }
  }
}
layer {
  name: "inception_4d/relu_5x5"
  type: "ReLU"
  bottom: "inception_4d/5x5"
  top: "inception_4d/5x5"
}
layer {
  name: "inception_4d/pool"
  type: "Pooling"
  bottom: "inception_4c/output"
  top: "inception_4d/pool"
  pooling_param {
    pool: MAX
    kernel_size: 3
    stride: 1
    pad: 1
  }
}
layer {
  name: "inception_4d/pool_proj"
  type: "Convolution"
  bottom: "inception_4d/pool"
  top: "inception_4d/pool_proj"
  param {
    lr_mult: 1
    decay_mult: 1
  }
  param {
    lr_mult: 2
    decay_mult: 0
  }
  convolution_param {
    num_output: 64
    kernel_size: 1
    weight_filler {
      type: "xavier"
    }
    bias_filler {
      type: "constant"
      value: 0.2
    }
  }
}
layer {
  name: "inception_4d/relu_pool_proj"
  type: "ReLU"
  bottom: "inception_4d/pool_proj"
  top: "inception_4d/pool_proj"
}
layer {
  name: "inception_4d/output"
  type: "Concat"
  bottom: "inception_4d/1x1"
  bottom: "inception_4d/3x3"
  bottom: "inception_4d/5x5"
  bottom: "inception_4d/pool_proj"
  top: "inception_4d/output"
}
layer {
  name: "loss2/ave_pool"
  type: "Pooling"
  bottom: "inception_4d/output"
  top: "loss2/ave_pool"
  pooling_param {
    pool: AVE
    kernel_size: 5
    stride: 3
  }
}
layer {
  name: "loss2/conv"
  type: "Convolution"
  bottom: "loss2/ave_pool"
  top: "loss2/conv"
  param {
    lr_mult: 1
    decay_mult: 1
  }
  param {
    lr_mult: 2
    decay_mult: 0
  }
  convolution_param {
    num_output: 128
    kernel_size: 1
    weight_filler {
      type: "xavier"
    }
    bias_filler {
      type: "constant"
      value: 0.2
    }
  }
}
layer {
  name: "loss2/relu_conv"
  type: "ReLU"
  bottom: "loss2/conv"
  top: "loss2/conv"
}
layer {
  name: "loss2/fc"
  type: "InnerProduct"
  bottom: "loss2/conv"
  top: "loss2/fc"
  param {
    lr_mult: 1
    decay_mult: 1
  }
  param {
    lr_mult: 2
    decay_mult: 0
  }
  inner_product_param {
    num_output: 1024
    weight_filler {
      type: "xavier"
    }
    bias_filler {
      type: "constant"
      value: 0.2
    }
  }
}
layer {
  name: "loss2/relu_fc"
  type: "ReLU"
  bottom: "loss2/fc"
  top: "loss2/fc"
}
layer {
  name: "loss2/drop_fc"
  type: "Dropout"
  bottom: "loss2/fc"
  top: "loss2/fc"
  dropout_param {
    dropout_ratio: 0.7
  }
}
layer {
  name: "loss2/classifier"
  type: "InnerProduct"
  bottom: "loss2/fc"
  top: "loss2/classifier"
  param {
    lr_mult: 1
    decay_mult: 1
  }
  param {
    lr_mult: 2
    decay_mult: 0
  }
  inner_product_param {
    num_output: 1000
    weight_filler {
      type: "xavier"
    }
    bias_filler {
      type: "constant"
      value: 0
    }
  }
}
layer {
  name: "loss2/loss"
  type: "SoftmaxWithLoss"
  bottom: "loss2/classifier"
  bottom: "label"
  top: "loss2/loss1"
  loss_weight: 0.3
}
layer {
  name: "inception_4e/1x1"
  type: "Convolution"
  bottom: "inception_4d/output"
  top: "inception_4e/1x1"
  param {
    lr_mult: 1
    decay_mult: 1
  }
  param {
    lr_mult: 2
    decay_mult: 0
  }
  convolution_param {
    num_output: 256
    kernel_size: 1
    weight_filler {
      type: "xavier"
    }
    bias_filler {
      type: "constant"
      value: 0.2
    }
  }
}
layer {
  name: "inception_4e/relu_1x1"
  type: "ReLU"
  bottom: "inception_4e/1x1"
  top: "inception_4e/1x1"
}
layer {
  name: "inception_4e/3x3_reduce"
  type: "Convolution"
  bottom: "inception_4d/output"
  top: "inception_4e/3x3_reduce"
  param {
    lr_mult: 1
    decay_mult: 1
  }
  param {
    lr_mult: 2
    decay_mult: 0
  }
  convolution_param {
    num_output: 160
    kernel_size: 1
    weight_filler {
      type: "xavier"
    }
    bias_filler {
      type: "constant"
      value: 0.2
    }
  }
}
layer {
  name: "inception_4e/relu_3x3_reduce"
  type: "ReLU"
  bottom: "inception_4e/3x3_reduce"
  top: "inception_4e/3x3_reduce"
}
layer {
  name: "inception_4e/3x3"
  type: "Convolution"
  bottom: "inception_4e/3x3_reduce"
  top: "inception_4e/3x3"
  param {
    lr_mult: 1
    decay_mult: 1
  }
  param {
    lr_mult: 2
    decay_mult: 0
  }
  convolution_param {
    num_output: 320
    pad: 1
    kernel_size: 3
    weight_filler {
      type: "xavier"
    }
    bias_filler {
      type: "constant"
      value: 0.2
    }
  }
}
layer {
  name: "inception_4e/relu_3x3"
  type: "ReLU"
  bottom: "inception_4e/3x3"
  top: "inception_4e/3x3"
}
layer {
  name: "inception_4e/5x5_reduce"
  type: "Convolution"
  bottom: "inception_4d/output"
  top: "inception_4e/5x5_reduce"
  param {
    lr_mult: 1
    decay_mult: 1
  }
  param {
    lr_mult: 2
    decay_mult: 0
  }
  convolution_param {
    num_output: 32
    kernel_size: 1
    weight_filler {
      type: "xavier"
    }
    bias_filler {
      type: "constant"
      value: 0.2
    }
  }
}
layer {
  name: "inception_4e/relu_5x5_reduce"
  type: "ReLU"
  bottom: "inception_4e/5x5_reduce"
  top: "inception_4e/5x5_reduce"
}
layer {
  name: "inception_4e/5x5"
  type: "Convolution"
  bottom: "inception_4e/5x5_reduce"
  top: "inception_4e/5x5"
  param {
    lr_mult: 1
    decay_mult: 1
  }
  param {
    lr_mult: 2
    decay_mult: 0
  }
  convolution_param {
    num_output: 128
    pad: 2
    kernel_size: 5
    weight_filler {
      type: "xavier"
    }
    bias_filler {
      type: "constant"
      value: 0.2
    }
  }
}
layer {
  name: "inception_4e/relu_5x5"
  type: "ReLU"
  bottom: "inception_4e/5x5"
  top: "inception_4e/5x5"
}
layer {
  name: "inception_4e/pool"
  type: "Pooling"
  bottom: "inception_4d/output"
  top: "inception_4e/pool"
  pooling_param {
    pool: MAX
    kernel
I0422 19:39:10.031836 1975033856 layer_factory.hpp:77] Creating layer data
I0422 19:39:10.032418 1975033856 db_lmdb.cpp:35] Opened lmdb /Users/pompy/dog_judge/img_train_lmdb
I0422 19:39:10.033010 1975033856 net.cpp:84] Creating Layer data
I0422 19:39:10.033028 1975033856 net.cpp:380] data -> data
I0422 19:39:10.033047 1975033856 net.cpp:380] data -> label
I0422 19:39:10.033056 1975033856 data_transformer.cpp:25] Loading mean file from: /Users/pompy/dog_judge/mean.binaryproto
I0422 19:39:10.040315 1975033856 data_layer.cpp:45] output data size: 100,3,224,224
I0422 19:39:10.134958 1975033856 net.cpp:122] Setting up data
I0422 19:39:10.134982 1975033856 net.cpp:129] Top shape: 100 3 224 224 (15052800)
I0422 19:39:10.135005 1975033856 net.cpp:129] Top shape: 100 (100)
I0422 19:39:10.135010 1975033856 net.cpp:137] Memory required for data: 60211600
I0422 19:39:10.135017 1975033856 layer_factory.hpp:77] Creating layer label_data_1_split
I0422 19:39:10.135028 1975033856 net.cpp:84] Creating Layer label_data_1_split
I0422 19:39:10.135035 1975033856 net.cpp:406] label_data_1_split <- label
I0422 19:39:10.135043 1975033856 net.cpp:380] label_data_1_split -> label_data_1_split_0
I0422 19:39:10.135053 1975033856 net.cpp:380] label_data_1_split -> label_data_1_split_1
I0422 19:39:10.135108 1975033856 net.cpp:380] label_data_1_split -> label_data_1_split_2
I0422 19:39:10.135123 1975033856 net.cpp:122] Setting up label_data_1_split
I0422 19:39:10.135128 1975033856 net.cpp:129] Top shape: 100 (100)
I0422 19:39:10.135133 1975033856 net.cpp:129] Top shape: 100 (100)
I0422 19:39:10.135136 1975033856 net.cpp:129] Top shape: 100 (100)
I0422 19:39:10.135140 1975033856 net.cpp:137] Memory required for data: 60212800
I0422 19:39:10.135144 1975033856 layer_factory.hpp:77] Creating layer conv1/7x7_s2
I0422 19:39:10.135155 1975033856 net.cpp:84] Creating Layer conv1/7x7_s2
I0422 19:39:10.135159 1975033856 net.cpp:406] conv1/7x7_s2 <- data
I0422 19:39:10.135164 1975033856 net.cpp:380] conv1/7x7_s2 -> conv1/7x7_s2
I0422 19:39:10.135296 1975033856 net.cpp:122] Setting up conv1/7x7_s2
I0422 19:39:10.135303 1975033856 net.cpp:129] Top shape: 100 64 112 112 (80281600)
I0422 19:39:10.135308 1975033856 net.cpp:137] Memory required for data: 381339200
I0422 19:39:10.135314 1975033856 layer_factory.hpp:77] Creating layer conv1/relu_7x7
I0422 19:39:10.135321 1975033856 net.cpp:84] Creating Layer conv1/relu_7x7
I0422 19:39:10.135324 1975033856 net.cpp:406] conv1/relu_7x7 <- conv1/7x7_s2
I0422 19:39:10.135329 1975033856 net.cpp:367] conv1/relu_7x7 -> conv1/7x7_s2 (in-place)
I0422 19:39:10.135334 1975033856 net.cpp:122] Setting up conv1/relu_7x7
I0422 19:39:10.135337 1975033856 net.cpp:129] Top shape: 100 64 112 112 (80281600)
I0422 19:39:10.135342 1975033856 net.cpp:137] Memory required for data: 702465600
I0422 19:39:10.135345 1975033856 layer_factory.hpp:77] Creating layer pool1/3x3_s2
I0422 19:39:10.135351 1975033856 net.cpp:84] Creating Layer pool1/3x3_s2
I0422 19:39:10.135354 1975033856 net.cpp:406] pool1/3x3_s2 <- conv1/7x7_s2
I0422 19:39:10.135359 1975033856 net.cpp:380] pool1/3x3_s2 -> pool1/3x3_s2
I0422 19:39:10.135368 1975033856 net.cpp:122] Setting up pool1/3x3_s2
I0422 19:39:10.135372 1975033856 net.cpp:129] Top shape: 100 64 56 56 (20070400)
I0422 19:39:10.135376 1975033856 net.cpp:137] Memory required for data: 782747200
I0422 19:39:10.135380 1975033856 layer_factory.hpp:77] Creating layer pool1/norm1
I0422 19:39:10.135387 1975033856 net.cpp:84] Creating Layer pool1/norm1
I0422 19:39:10.135408 1975033856 net.cpp:406] pool1/norm1 <- pool1/3x3_s2
I0422 19:39:10.135416 1975033856 net.cpp:380] pool1/norm1 -> pool1/norm1
I0422 19:39:10.135426 1975033856 net.cpp:122] Setting up pool1/norm1
I0422 19:39:10.135431 1975033856 net.cpp:129] Top shape: 100 64 56 56 (20070400)
I0422 19:39:10.135437 1975033856 net.cpp:137] Memory required for data: 863028800
I0422 19:39:10.135440 1975033856 layer_factory.hpp:77] Creating layer conv2/3x3_reduce
I0422 19:39:10.135447 1975033856 net.cpp:84] Creating Layer conv2/3x3_reduce
I0422 19:39:10.135452 1975033856 net.cpp:406] conv2/3x3_reduce <- pool1/norm1
I0422 19:39:10.135457 1975033856 net.cpp:380] conv2/3x3_reduce -> conv2/3x3_reduce
I0422 19:39:10.135507 1975033856 net.cpp:122] Setting up conv2/3x3_reduce
I0422 19:39:10.135512 1975033856 net.cpp:129] Top shape: 100 64 56 56 (20070400)
I0422 19:39:10.135516 1975033856 net.cpp:137] Memory required for data: 943310400
I0422 19:39:10.135522 1975033856 layer_factory.hpp:77] Creating layer conv2/relu_3x3_reduce
I0422 19:39:10.135529 1975033856 net.cpp:84] Creating Layer conv2/relu_3x3_reduce
I0422 19:39:10.135532 1975033856 net.cpp:406] conv2/relu_3x3_reduce <- conv2/3x3_reduce
I0422 19:39:10.135538 1975033856 net.cpp:367] conv2/relu_3x3_reduce -> conv2/3x3_reduce (in-place)
I0422 19:39:10.135542 1975033856 net.cpp:122] Setting up conv2/relu_3x3_reduce
I0422 19:39:10.135546 1975033856 net.cpp:129] Top shape: 100 64 56 56 (20070400)
I0422 19:39:10.135553 1975033856 net.cpp:137] Memory required for data: 1023592000
I0422 19:39:10.135560 1975033856 layer_factory.hpp:77] Creating layer conv2/3x3
I0422 19:39:10.135571 1975033856 net.cpp:84] Creating Layer conv2/3x3
I0422 19:39:10.135576 1975033856 net.cpp:406] conv2/3x3 <- conv2/3x3_reduce
I0422 19:39:10.135581 1975033856 net.cpp:380] conv2/3x3 -> conv2/3x3
I0422 19:39:10.136476 1975033856 net.cpp:122] Setting up conv2/3x3
I0422 19:39:10.136482 1975033856 net.cpp:129] Top shape: 100 192 56 56 (60211200)
I0422 19:39:10.136497 1975033856 net.cpp:137] Memory required for data: 1264436800
I0422 19:39:10.136507 1975033856 layer_factory.hpp:77] Creating layer conv2/relu_3x3
I0422 19:39:10.136512 1975033856 net.cpp:84] Creating Layer conv2/relu_3x3
I0422 19:39:10.136517 1975033856 net.cpp:406] conv2/relu_3x3 <- conv2/3x3
I0422 19:39:10.136526 1975033856 net.cpp:367] conv2/relu_3x3 -> conv2/3x3 (in-place)
I0422 19:39:10.136531 1975033856 net.cpp:122] Setting up conv2/relu_3x3
I0422 19:39:10.136534 1975033856 net.cpp:129] Top shape: 100 192 56 56 (60211200)
I0422 19:39:10.136539 1975033856 net.cpp:137] Memory required for data: 1505281600
I0422 19:39:10.136543 1975033856 layer_factory.hpp:77] Creating layer conv2/norm2
I0422 19:39:10.136546 1975033856 net.cpp:84] Creating Layer conv2/norm2
I0422 19:39:10.136550 1975033856 net.cpp:406] conv2/norm2 <- conv2/3x3
I0422 19:39:10.136554 1975033856 net.cpp:380] conv2/norm2 -> conv2/norm2
I0422 19:39:10.136559 1975033856 net.cpp:122] Setting up conv2/norm2
I0422 19:39:10.136564 1975033856 net.cpp:129] Top shape: 100 192 56 56 (60211200)
I0422 19:39:10.136572 1975033856 net.cpp:137] Memory required for data: 1746126400
I0422 19:39:10.136579 1975033856 layer_factory.hpp:77] Creating layer pool2/3x3_s2
I0422 19:39:10.136585 1975033856 net.cpp:84] Creating Layer pool2/3x3_s2
I0422 19:39:10.136589 1975033856 net.cpp:406] pool2/3x3_s2 <- conv2/norm2
I0422 19:39:10.136592 1975033856 net.cpp:380] pool2/3x3_s2 -> pool2/3x3_s2
I0422 19:39:10.136598 1975033856 net.cpp:122] Setting up pool2/3x3_s2
I0422 19:39:10.136602 1975033856 net.cpp:129] Top shape: 100 192 28 28 (15052800)
I0422 19:39:10.136607 1975033856 net.cpp:137] Memory required for data: 1806337600
I0422 19:39:10.136610 1975033856 layer_factory.hpp:77] Creating layer pool2/3x3_s2_pool2/3x3_s2_0_split
I0422 19:39:10.136616 1975033856 net.cpp:84] Creating Layer pool2/3x3_s2_pool2/3x3_s2_0_split
I0422 19:39:10.136620 1975033856 net.cpp:406] pool2/3x3_s2_pool2/3x3_s2_0_split <- pool2/3x3_s2
I0422 19:39:10.136625 1975033856 net.cpp:380] pool2/3x3_s2_pool2/3x3_s2_0_split -> pool2/3x3_s2_pool2/3x3_s2_0_split_0
I0422 19:39:10.136629 1975033856 net.cpp:380] pool2/3x3_s2_pool2/3x3_s2_0_split -> pool2/3x3_s2_pool2/3x3_s2_0_split_1
I0422 19:39:10.136634 1975033856 net.cpp:380] pool2/3x3_s2_pool2/3x3_s2_0_split -> pool2/3x3_s2_pool2/3x3_s2_0_split_2
I0422 19:39:10.136639 1975033856 net.cpp:380] pool2/3x3_s2_pool2/3x3_s2_0_split -> pool2/3x3_s2_pool2/3x3_s2_0_split_3
I0422 19:39:10.136646 1975033856 net.cpp:122] Setting up pool2/3x3_s2_pool2/3x3_s2_0_split
I0422 19:39:10.136648 1975033856 net.cpp:129] Top shape: 100 192 28 28 (15052800)
I0422 19:39:10.136652 1975033856 net.cpp:129] Top shape: 100 192 28 28 (15052800)
I0422 19:39:10.136656 1975033856 net.cpp:129] Top shape: 100 192 28 28 (15052800)
I0422 19:39:10.136660 1975033856 net.cpp:129] Top shape: 100 192 28 28 (15052800)
I0422 19:39:10.136664 1975033856 net.cpp:137] Memory required for data: 2047182400
I0422 19:39:10.136668 1975033856 layer_factory.hpp:77] Creating layer inception_3a/1x1
I0422 19:39:10.136673 1975033856 net.cpp:84] Creating Layer inception_3a/1x1
I0422 19:39:10.136677 1975033856 net.cpp:406] inception_3a/1x1 <- pool2/3x3_s2_pool2/3x3_s2_0_split_0
I0422 19:39:10.136682 1975033856 net.cpp:380] inception_3a/1x1 -> inception_3a/1x1
I0422 19:39:10.136858 1975033856 net.cpp:122] Setting up inception_3a/1x1
I0422 19:39:10.136870 1975033856 net.cpp:129] Top shape: 100 64 28 28 (5017600)
I0422 19:39:10.136875 1975033856 net.cpp:137] Memory required for data: 2067252800
I0422 19:39:10.136880 1975033856 layer_factory.hpp:77] Creating layer inception_3a/relu_1x1
I0422 19:39:10.136886 1975033856 net.cpp:84] Creating Layer inception_3a/relu_1x1
I0422 19:39:10.136890 1975033856 net.cpp:406] inception_3a/relu_1x1 <- inception_3a/1x1
I0422 19:39:10.136894 1975033856 net.cpp:367] inception_3a/relu_1x1 -> inception_3a/1x1 (in-place)
I0422 19:39:10.136915 1975033856 net.cpp:122] Setting up inception_3a/relu_1x1
I0422 19:39:10.136919 1975033856 net.cpp:129] Top shape: 100 64 28 28 (5017600)
I0422 19:39:10.136924 1975033856 net.cpp:137] Memory required for data: 2087323200
I0422 19:39:10.136927 1975033856 layer_factory.hpp:77] Creating layer inception_3a/3x3_reduce
I0422 19:39:10.136934 1975033856 net.cpp:84] Creating Layer inception_3a/3x3_reduce
I0422 19:39:10.136939 1975033856 net.cpp:406] inception_3a/3x3_reduce <- pool2/3x3_s2_pool2/3x3_s2_0_split_1
I0422 19:39:10.136943 1975033856 net.cpp:380] inception_3a/3x3_reduce -> inception_3a/3x3_reduce
I0422 19:39:10.137105 1975033856 net.cpp:122] Setting up inception_3a/3x3_reduce
I0422 19:39:10.137110 1975033856 net.cpp:129] Top shape: 100 96 28 28 (7526400)
I0422 19:39:10.137115 1975033856 net.cpp:137] Memory required for data: 2117428800
I0422 19:39:10.137120 1975033856 layer_factory.hpp:77] Creating layer inception_3a/relu_3x3_reduce
I0422 19:39:10.137126 1975033856 net.cpp:84] Creating Layer inception_3a/relu_3x3_reduce
I0422 19:39:10.137130 1975033856 net.cpp:406] inception_3a/relu_3x3_reduce <- inception_3a/3x3_reduce
I0422 19:39:10.137135 1975033856 net.cpp:367] inception_3a/relu_3x3_reduce -> inception_3a/3x3_reduce (in-place)
I0422 19:39:10.137140 1975033856 net.cpp:122] Setting up inception_3a/relu_3x3_reduce
I0422 19:39:10.137143 1975033856 net.cpp:129] Top shape: 100 96 28 28 (7526400)
I0422 19:39:10.137147 1975033856 net.cpp:137] Memory required for data: 2147534400
I0422 19:39:10.137151 1975033856 layer_factory.hpp:77] Creating layer inception_3a/3x3
I0422 19:39:10.137157 1975033856 net.cpp:84] Creating Layer inception_3a/3x3
I0422 19:39:10.137161 1975033856 net.cpp:406] inception_3a/3x3 <- inception_3a/3x3_reduce
I0422 19:39:10.137164 1975033856 net.cpp:380] inception_3a/3x3 -> inception_3a/3x3
I0422 19:39:10.138083 1975033856 net.cpp:122] Setting up inception_3a/3x3
I0422 19:39:10.138090 1975033856 net.cpp:129] Top shape: 100 128 28 28 (10035200)
I0422 19:39:10.138106 1975033856 net.cpp:137] Memory required for data: 2187675200
I0422 19:39:10.138111 1975033856 layer_factory.hpp:77] Creating layer inception_3a/relu_3x3
I0422 19:39:10.138115 1975033856 net.cpp:84] Creating Layer inception_3a/relu_3x3
I0422 19:39:10.138119 1975033856 net.cpp:406] inception_3a/relu_3x3 <- inception_3a/3x3
I0422 19:39:10.138123 1975033856 net.cpp:367] inception_3a/relu_3x3 -> inception_3a/3x3 (in-place)
I0422 19:39:10.138128 1975033856 net.cpp:122] Setting up inception_3a/relu_3x3
I0422 19:39:10.138133 1975033856 net.cpp:129] Top shape: 100 128 28 28 (10035200)
I0422 19:39:10.138136 1975033856 net.cpp:137] Memory required for data: 2227816000
I0422 19:39:10.138140 1975033856 layer_factory.hpp:77] Creating layer inception_3a/5x5_reduce
I0422 19:39:10.138151 1975033856 net.cpp:84] Creating Layer inception_3a/5x5_reduce
I0422 19:39:10.138156 1975033856 net.cpp:406] inception_3a/5x5_reduce <- pool2/3x3_s2_pool2/3x3_s2_0_split_2
I0422 19:39:10.138161 1975033856 net.cpp:380] inception_3a/5x5_reduce -> inception_3a/5x5_reduce
I0422 19:39:10.138195 1975033856 net.cpp:122] Setting up inception_3a/5x5_reduce
I0422 19:39:10.138198 1975033856 net.cpp:129] Top shape: 100 16 28 28 (1254400)
I0422 19:39:10.138203 1975033856 net.cpp:137] Memory required for data: 2232833600
I0422 19:39:10.138207 1975033856 layer_factory.hpp:77] Creating layer inception_3a/relu_5x5_reduce
I0422 19:39:10.138212 1975033856 net.cpp:84] Creating Layer inception_3a/relu_5x5_reduce
I0422 19:39:10.138216 1975033856 net.cpp:406] inception_3a/relu_5x5_reduce <- inception_3a/5x5_reduce
I0422 19:39:10.138224 1975033856 net.cpp:367] inception_3a/relu_5x5_reduce -> inception_3a/5x5_reduce (in-place)
I0422 19:39:10.138231 1975033856 net.cpp:122] Setting up inception_3a/relu_5x5_reduce
I0422 19:39:10.138234 1975033856 net.cpp:129] Top shape: 100 16 28 28 (1254400)
I0422 19:39:10.138239 1975033856 net.cpp:137] Memory required for data: 2237851200
I0422 19:39:10.138242 1975033856 layer_factory.hpp:77] Creating layer inception_3a/5x5
I0422 19:39:10.138248 1975033856 net.cpp:84] Creating Layer inception_3a/5x5
I0422 19:39:10.138265 1975033856 net.cpp:406] inception_3a/5x5 <- inception_3a/5x5_reduce
I0422 19:39:10.138272 1975033856 net.cpp:380] inception_3a/5x5 -> inception_3a/5x5
I0422 19:39:10.138384 1975033856 net.cpp:122] Setting up inception_3a/5x5
I0422 19:39:10.138389 1975033856 net.cpp:129] Top shape: 100 32 28 28 (2508800)
I0422 19:39:10.138393 1975033856 net.cpp:137] Memory required for data: 2247886400
I0422 19:39:10.138398 1975033856 layer_factory.hpp:77] Creating layer inception_3a/relu_5x5
I0422 19:39:10.138402 1975033856 net.cpp:84] Creating Layer inception_3a/relu_5x5
I0422 19:39:10.138406 1975033856 net.cpp:406] inception_3a/relu_5x5 <- inception_3a/5x5
I0422 19:39:10.138409 1975033856 net.cpp:367] inception_3a/relu_5x5 -> inception_3a/5x5 (in-place)
I0422 19:39:10.138414 1975033856 net.cpp:122] Setting up inception_3a/relu_5x5
I0422 19:39:10.138417 1975033856 net.cpp:129] Top shape: 100 32 28 28 (2508800)
I0422 19:39:10.138422 1975033856 net.cpp:137] Memory required for data: 2257921600
I0422 19:39:10.138425 1975033856 layer_factory.hpp:77] Creating layer inception_3a/pool
I0422 19:39:10.138430 1975033856 net.cpp:84] Creating Layer inception_3a/pool
I0422 19:39:10.138434 1975033856 net.cpp:406] inception_3a/pool <- pool2/3x3_s2_pool2/3x3_s2_0_split_3
I0422 19:39:10.138438 1975033856 net.cpp:380] inception_3a/pool -> inception_3a/pool
I0422 19:39:10.138444 1975033856 net.cpp:122] Setting up inception_3a/pool
I0422 19:39:10.138448 1975033856 net.cpp:129] Top shape: 100 192 28 28 (15052800)
I0422 19:39:10.138453 1975033856 net.cpp:137] Memory required for data: 2318132800
I0422 19:39:10.138455 1975033856 layer_factory.hpp:77] Creating layer inception_3a/pool_proj
I0422 19:39:10.138461 1975033856 net.cpp:84] Creating Layer inception_3a/pool_proj
I0422 19:39:10.138464 1975033856 net.cpp:406] inception_3a/pool_proj <- inception_3a/pool
I0422 19:39:10.138469 1975033856 net.cpp:380] inception_3a/pool_proj -> inception_3a/pool_proj
I0422 19:39:10.138535 1975033856 net.cpp:122] Setting up inception_3a/pool_proj
I0422 19:39:10.138538 1975033856 net.cpp:129] Top shape: 100 32 28 28 (2508800)
I0422 19:39:10.138542 1975033856 net.cpp:137] Memory required for data: 2328168000
I0422 19:39:10.138548 1975033856 layer_factory.hpp:77] Creating layer inception_3a/relu_pool_proj
I0422 19:39:10.138553 1975033856 net.cpp:84] Creating Layer inception_3a/relu_pool_proj
I0422 19:39:10.138557 1975033856 net.cpp:406] inception_3a/relu_pool_proj <- inception_3a/pool_proj
I0422 19:39:10.138561 1975033856 net.cpp:367] inception_3a/relu_pool_proj -> inception_3a/pool_proj (in-place)
I0422 19:39:10.138566 1975033856 net.cpp:122] Setting up inception_3a/relu_pool_proj
I0422 19:39:10.138568 1975033856 net.cpp:129] Top shape: 100 32 28 28 (2508800)
I0422 19:39:10.138572 1975033856 net.cpp:137] Memory required for data: 2338203200
I0422 19:39:10.138576 1975033856 layer_factory.hpp:77] Creating layer inception_3a/output
I0422 19:39:10.138581 1975033856 net.cpp:84] Creating Layer inception_3a/output
I0422 19:39:10.138584 1975033856 net.cpp:406] inception_3a/output <- inception_3a/1x1
I0422 19:39:10.138588 1975033856 net.cpp:406] inception_3a/output <- inception_3a/3x3
I0422 19:39:10.138592 1975033856 net.cpp:406] inception_3a/output <- inception_3a/5x5
I0422 19:39:10.138597 1975033856 net.cpp:406] inception_3a/output <- inception_3a/pool_proj
I0422 19:39:10.138600 1975033856 net.cpp:380] inception_3a/output -> inception_3a/output
I0422 19:39:10.138605 1975033856 net.cpp:122] Setting up inception_3a/output
I0422 19:39:10.138608 1975033856 net.cpp:129] Top shape: 100 256 28 28 (20070400)
I0422 19:39:10.138612 1975033856 net.cpp:137] Memory required for data: 2418484800
I0422 19:39:10.138615 1975033856 layer_factory.hpp:77] Creating layer inception_3a/output_inception_3a/output_0_split
I0422 19:39:10.138622 1975033856 net.cpp:84] Creating Layer inception_3a/output_inception_3a/output_0_split
I0422 19:39:10.138624 1975033856 net.cpp:406] inception_3a/output_inception_3a/output_0_split <- inception_3a/output
I0422 19:39:10.138638 1975033856 net.cpp:380] inception_3a/output_inception_3a/output_0_split -> inception_3a/output_inception_3a/output_0_split_0
I0422 19:39:10.138643 1975033856 net.cpp:380] inception_3a/output_inception_3a/output_0_split -> inception_3a/output_inception_3a/output_0_split_1
I0422 19:39:10.138649 1975033856 net.cpp:380] inception_3a/output_inception_3a/output_0_split -> inception_3a/output_inception_3a/output_0_split_2
I0422 19:39:10.138654 1975033856 net.cpp:380] inception_3a/output_inception_3a/output_0_split -> inception_3a/output_inception_3a/output_0_split_3
I0422 19:39:10.138660 1975033856 net.cpp:122] Setting up inception_3a/output_inception_3a/output_0_split
I0422 19:39:10.138664 1975033856 net.cpp:129] Top shape: 100 256 28 28 (20070400)
I0422 19:39:10.138667 1975033856 net.cpp:129] Top shape: 100 256 28 28 (20070400)
I0422 19:39:10.138672 1975033856 net.cpp:129] Top shape: 100 256 28 28 (20070400)
I0422 19:39:10.138676 1975033856 net.cpp:129] Top shape: 100 256 28 28 (20070400)
I0422 19:39:10.138680 1975033856 net.cpp:137] Memory required for data: 2739611200
I0422 19:39:10.138684 1975033856 layer_factory.hpp:77] Creating layer inception_3b/1x1
I0422 19:39:10.138690 1975033856 net.cpp:84] Creating Layer inception_3b/1x1
I0422 19:39:10.138694 1975033856 net.cpp:406] inception_3b/1x1 <- inception_3a/output_inception_3a/output_0_split_0
I0422 19:39:10.138698 1975033856 net.cpp:380] inception_3b/1x1 -> inception_3b/1x1
I0422 19:39:10.138972 1975033856 net.cpp:122] Setting up inception_3b/1x1
I0422 19:39:10.138978 1975033856 net.cpp:129] Top shape: 100 128 28 28 (10035200)
I0422 19:39:10.138991 1975033856 net.cpp:137] Memory required for data: 2779752000
I0422 19:39:10.138996 1975033856 layer_factory.hpp:77] Creating layer inception_3b/relu_1x1
I0422 19:39:10.139011 1975033856 net.cpp:84] Creating Layer inception_3b/relu_1x1
I0422 19:39:10.139014 1975033856 net.cpp:406] inception_3b/relu_1x1 <- inception_3b/1x1
I0422 19:39:10.139019 1975033856 net.cpp:367] inception_3b/relu_1x1 -> inception_3b/1x1 (in-place)
I0422 19:39:10.139024 1975033856 net.cpp:122] Setting up inception_3b/relu_1x1
I0422 19:39:10.139026 1975033856 net.cpp:129] Top shape: 100 128 28 28 (10035200)
I0422 19:39:10.139031 1975033856 net.cpp:137] Memory required for data: 2819892800
I0422 19:39:10.139034 1975033856 layer_factory.hpp:77] Creating layer inception_3b/3x3_reduce
I0422 19:39:10.139044 1975033856 net.cpp:84] Creating Layer inception_3b/3x3_reduce
I0422 19:39:10.139047 1975033856 net.cpp:406] inception_3b/3x3_reduce <- inception_3a/output_inception_3a/output_0_split_1
I0422 19:39:10.139053 1975033856 net.cpp:380] inception_3b/3x3_reduce -> inception_3b/3x3_reduce
I0422 19:39:10.139336 1975033856 net.cpp:122] Setting up inception_3b/3x3_reduce
I0422 19:39:10.139341 1975033856 net.cpp:129] Top shape: 100 128 28 28 (10035200)
I0422 19:39:10.139355 1975033856 net.cpp:137] Memory required for data: 2860033600
I0422 19:39:10.139360 1975033856 layer_factory.hpp:77] Creating layer inception_3b/relu_3x3_reduce
I0422 19:39:10.139365 1975033856 net.cpp:84] Creating Layer inception_3b/relu_3x3_reduce
I0422 19:39:10.139369 1975033856 net.cpp:406] inception_3b/relu_3x3_reduce <- inception_3b/3x3_reduce
I0422 19:39:10.139372 1975033856 net.cpp:367] inception_3b/relu_3x3_reduce -> inception_3b/3x3_reduce (in-place)
I0422 19:39:10.139377 1975033856 net.cpp:122] Setting up inception_3b/relu_3x3_reduce
I0422 19:39:10.139381 1975033856 net.cpp:129] Top shape: 100 128 28 28 (10035200)
I0422 19:39:10.139385 1975033856 net.cpp:137] Memory required for data: 2900174400
I0422 19:39:10.139389 1975033856 layer_factory.hpp:77] Creating layer inception_3b/3x3
I0422 19:39:10.139402 1975033856 net.cpp:84] Creating Layer inception_3b/3x3
I0422 19:39:10.139405 1975033856 net.cpp:406] inception_3b/3x3 <- inception_3b/3x3_reduce
I0422 19:39:10.139412 1975033856 net.cpp:380] inception_3b/3x3 -> inception_3b/3x3
I0422 19:39:10.141149 1975033856 net.cpp:122] Setting up inception_3b/3x3
I0422 19:39:10.141157 1975033856 net.cpp:129] Top shape: 100 192 28 28 (15052800)
I0422 19:39:10.141183 1975033856 net.cpp:137] Memory required for data: 2960385600
I0422 19:39:10.141189 1975033856 layer_factory.hpp:77] Creating layer inception_3b/relu_3x3
I0422 19:39:10.141194 1975033856 net.cpp:84] Creating Layer inception_3b/relu_3x3
I0422 19:39:10.141198 1975033856 net.cpp:406] inception_3b/relu_3x3 <- inception_3b/3x3
I0422 19:39:10.141203 1975033856 net.cpp:367] inception_3b/relu_3x3 -> inception_3b/3x3 (in-place)
I0422 19:39:10.141208 1975033856 net.cpp:122] Setting up inception_3b/relu_3x3
I0422 19:39:10.141212 1975033856 net.cpp:129] Top shape: 100 192 28 28 (15052800)
I0422 19:39:10.141217 1975033856 net.cpp:137] Memory required for data: 3020596800
I0422 19:39:10.141221 1975033856 layer_factory.hpp:77] Creating layer inception_3b/5x5_reduce
I0422 19:39:10.141227 1975033856 net.cpp:84] Creating Layer inception_3b/5x5_reduce
I0422 19:39:10.141230 1975033856 net.cpp:406] inception_3b/5x5_reduce <- inception_3a/output_inception_3a/output_0_split_2
I0422 19:39:10.141235 1975033856 net.cpp:380] inception_3b/5x5_reduce -> inception_3b/5x5_reduce
I0422 19:39:10.141310 1975033856 net.cpp:122] Setting up inception_3b/5x5_reduce
I0422 19:39:10.141314 1975033856 net.cpp:129] Top shape: 100 32 28 28 (2508800)
I0422 19:39:10.141319 1975033856 net.cpp:137] Memory required for data: 3030632000
I0422 19:39:10.141324 1975033856 layer_factory.hpp:77] Creating layer inception_3b/relu_5x5_reduce
I0422 19:39:10.141327 1975033856 net.cpp:84] Creating Layer inception_3b/relu_5x5_reduce
I0422 19:39:10.141330 1975033856 net.cpp:406] inception_3b/relu_5x5_reduce <- inception_3b/5x5_reduce
I0422 19:39:10.141335 1975033856 net.cpp:367] inception_3b/relu_5x5_reduce -> inception_3b/5x5_reduce (in-place)
I0422 19:39:10.141340 1975033856 net.cpp:122] Setting up inception_3b/relu_5x5_reduce
I0422 19:39:10.141343 1975033856 net.cpp:129] Top shape: 100 32 28 28 (2508800)
I0422 19:39:10.141347 1975033856 net.cpp:137] Memory required for data: 3040667200
I0422 19:39:10.141350 1975033856 layer_factory.hpp:77] Creating layer inception_3b/5x5
I0422 19:39:10.141355 1975033856 net.cpp:84] Creating Layer inception_3b/5x5
I0422 19:39:10.141360 1975033856 net.cpp:406] inception_3b/5x5 <- inception_3b/5x5_reduce
I0422 19:39:10.141365 1975033856 net.cpp:380] inception_3b/5x5 -> inception_3b/5x5
I0422 19:39:10.141984 1975033856 net.cpp:122] Setting up inception_3b/5x5
I0422 19:39:10.141989 1975033856 net.cpp:129] Top shape: 100 96 28 28 (7526400)
I0422 19:39:10.142004 1975033856 net.cpp:137] Memory required for data: 3070772800
I0422 19:39:10.142009 1975033856 layer_factory.hpp:77] Creating layer inception_3b/relu_5x5
I0422 19:39:10.142014 1975033856 net.cpp:84] Creating Layer inception_3b/relu_5x5
I0422 19:39:10.142016 1975033856 net.cpp:406] inception_3b/relu_5x5 <- inception_3b/5x5
I0422 19:39:10.142020 1975033856 net.cpp:367] inception_3b/relu_5x5 -> inception_3b/5x5 (in-place)
I0422 19:39:10.142025 1975033856 net.cpp:122] Setting up inception_3b/relu_5x5
I0422 19:39:10.142030 1975033856 net.cpp:129] Top shape: 100 96 28 28 (7526400)
I0422 19:39:10.142033 1975033856 net.cpp:137] Memory required for data: 3100878400
I0422 19:39:10.142036 1975033856 layer_factory.hpp:77] Creating layer inception_3b/pool
I0422 19:39:10.142041 1975033856 net.cpp:84] Creating Layer inception_3b/pool
I0422 19:39:10.142045 1975033856 net.cpp:406] inception_3b/pool <- inception_3a/output_inception_3a/output_0_split_3
I0422 19:39:10.142050 1975033856 net.cpp:380] inception_3b/pool -> inception_3b/pool
I0422 19:39:10.142055 1975033856 net.cpp:122] Setting up inception_3b/pool
I0422 19:39:10.142060 1975033856 net.cpp:129] Top shape: 100 256 28 28 (20070400)
I0422 19:39:10.142063 1975033856 net.cpp:137] Memory required for data: 3181160000
I0422 19:39:10.142067 1975033856 layer_factory.hpp:77] Creating layer inception_3b/pool_proj
I0422 19:39:10.142073 1975033856 net.cpp:84] Creating Layer inception_3b/pool_proj
I0422 19:39:10.142077 1975033856 net.cpp:406] inception_3b/pool_proj <- inception_3b/pool
I0422 19:39:10.142081 1975033856 net.cpp:380] inception_3b/pool_proj -> inception_3b/pool_proj
I0422 19:39:10.142233 1975033856 net.cpp:122] Setting up inception_3b/pool_proj
I0422 19:39:10.142240 1975033856 net.cpp:129] Top shape: 100 64 28 28 (5017600)
I0422 19:39:10.142243 1975033856 net.cpp:137] Memory required for data: 3201230400
I0422 19:39:10.142248 1975033856 layer_factory.hpp:77] Creating layer inception_3b/relu_pool_proj
I0422 19:39:10.142253 1975033856 net.cpp:84] Creating Layer inception_3b/relu_pool_proj
I0422 19:39:10.142256 1975033856 net.cpp:406] inception_3b/relu_pool_proj <- inception_3b/pool_proj
I0422 19:39:10.142261 1975033856 net.cpp:367] inception_3b/relu_pool_proj -> inception_3b/pool_proj (in-place)
I0422 19:39:10.142266 1975033856 net.cpp:122] Setting up inception_3b/relu_pool_proj
I0422 19:39:10.142268 1975033856 net.cpp:129] Top shape: 100 64 28 28 (5017600)
I0422 19:39:10.142272 1975033856 net.cpp:137] Memory required for data: 3221300800
I0422 19:39:10.142277 1975033856 layer_factory.hpp:77] Creating layer inception_3b/output
I0422 19:39:10.142282 1975033856 net.cpp:84] Creating Layer inception_3b/output
I0422 19:39:10.142284 1975033856 net.cpp:406] inception_3b/output <- inception_3b/1x1
I0422 19:39:10.142288 1975033856 net.cpp:406] inception_3b/output <- inception_3b/3x3
I0422 19:39:10.142292 1975033856 net.cpp:406] inception_3b/output <- inception_3b/5x5
I0422 19:39:10.142295 1975033856 net.cpp:406] inception_3b/output <- inception_3b/pool_proj
I0422 19:39:10.142299 1975033856 net.cpp:380] inception_3b/output -> inception_3b/output
I0422 19:39:10.142304 1975033856 net.cpp:122] Setting up inception_3b/output
I0422 19:39:10.142308 1975033856 net.cpp:129] Top shape: 100 480 28 28 (37632000)
I0422 19:39:10.142313 1975033856 net.cpp:137] Memory required for data: 3371828800
I0422 19:39:10.142316 1975033856 layer_factory.hpp:77] Creating layer pool3/3x3_s2
I0422 19:39:10.142321 1975033856 net.cpp:84] Creating Layer pool3/3x3_s2
I0422 19:39:10.142324 1975033856 net.cpp:406] pool3/3x3_s2 <- inception_3b/output
I0422 19:39:10.142329 1975033856 net.cpp:380] pool3/3x3_s2 -> pool3/3x3_s2
I0422 19:39:10.142334 1975033856 net.cpp:122] Setting up pool3/3x3_s2
I0422 19:39:10.142338 1975033856 net.cpp:129] Top shape: 100 480 14 14 (9408000)
I0422 19:39:10.142341 1975033856 net.cpp:137] Memory required for data: 3409460800
I0422 19:39:10.142345 1975033856 layer_factory.hpp:77] Creating layer pool3/3x3_s2_pool3/3x3_s2_0_split
I0422 19:39:10.142350 1975033856 net.cpp:84] Creating Layer pool3/3x3_s2_pool3/3x3_s2_0_split
I0422 19:39:10.142354 1975033856 net.cpp:406] pool3/3x3_s2_pool3/3x3_s2_0_split <- pool3/3x3_s2
I0422 19:39:10.142359 1975033856 net.cpp:380] pool3/3x3_s2_pool3/3x3_s2_0_split -> pool3/3x3_s2_pool3/3x3_s2_0_split_0
I0422 19:39:10.142364 1975033856 net.cpp:380] pool3/3x3_s2_pool3/3x3_s2_0_split -> pool3/3x3_s2_pool3/3x3_s2_0_split_1
I0422 19:39:10.142369 1975033856 net.cpp:380] pool3/3x3_s2_pool3/3x3_s2_0_split -> pool3/3x3_s2_pool3/3x3_s2_0_split_2
I0422 19:39:10.142374 1975033856 net.cpp:380] pool3/3x3_s2_pool3/3x3_s2_0_split -> pool3/3x3_s2_pool3/3x3_s2_0_split_3
I0422 19:39:10.142380 1975033856 net.cpp:122] Setting up pool3/3x3_s2_pool3/3x3_s2_0_split
I0422 19:39:10.142383 1975033856 net.cpp:129] Top shape: 100 480 14 14 (9408000)
I0422 19:39:10.142387 1975033856 net.cpp:129] Top shape: 100 480 14 14 (9408000)
I0422 19:39:10.142392 1975033856 net.cpp:129] Top shape: 100 480 14 14 (9408000)
I0422 19:39:10.142396 1975033856 net.cpp:129] Top shape: 100 480 14 14 (9408000)
I0422 19:39:10.142400 1975033856 net.cpp:137] Memory required for data: 3559988800
I0422 19:39:10.142403 1975033856 layer_factory.hpp:77] Creating layer inception_4a/1x1
I0422 19:39:10.142413 1975033856 net.cpp:84] Creating Layer inception_4a/1x1
I0422 19:39:10.142416 1975033856 net.cpp:406] inception_4a/1x1 <- pool3/3x3_s2_pool3/3x3_s2_0_split_0
I0422 19:39:10.142426 1975033856 net.cpp:380] inception_4a/1x1 -> inception_4a/1x1
I0422 19:39:10.143189 1975033856 net.cpp:122] Setting up inception_4a/1x1
I0422 19:39:10.143195 1975033856 net.cpp:129] Top shape: 100 192 14 14 (3763200)
I0422 19:39:10.143220 1975033856 net.cpp:137] Memory required for data: 3575041600
I0422 19:39:10.143225 1975033856 layer_factory.hpp:77] Creating layer inception_4a/relu_1x1
I0422 19:39:10.143230 1975033856 net.cpp:84] Creating Layer inception_4a/relu_1x1
I0422 19:39:10.143234 1975033856 net.cpp:406] inception_4a/relu_1x1 <- inception_4a/1x1
I0422 19:39:10.143239 1975033856 net.cpp:367] inception_4a/relu_1x1 -> inception_4a/1x1 (in-place)
I0422 19:39:10.143244 1975033856 net.cpp:122] Setting up inception_4a/relu_1x1
I0422 19:39:10.143246 1975033856 net.cpp:129] Top shape: 100 192 14 14 (3763200)
I0422 19:39:10.143251 1975033856 net.cpp:137] Memory required for data: 3590094400
I0422 19:39:10.143254 1975033856 layer_factory.hpp:77] Creating layer inception_4a/3x3_reduce
I0422 19:39:10.143260 1975033856 net.cpp:84] Creating Layer inception_4a/3x3_reduce
I0422 19:39:10.143265 1975033856 net.cpp:406] inception_4a/3x3_reduce <- pool3/3x3_s2_pool3/3x3_s2_0_split_1
I0422 19:39:10.143268 1975033856 net.cpp:380] inception_4a/3x3_reduce -> inception_4a/3x3_reduce
I0422 19:39:10.143642 1975033856 net.cpp:122] Setting up inception_4a/3x3_reduce
I0422 19:39:10.143647 1975033856 net.cpp:129] Top shape: 100 96 14 14 (1881600)
I0422 19:39:10.143662 1975033856 net.cpp:137] Memory required for data: 3597620800
I0422 19:39:10.143669 1975033856 layer_factory.hpp:77] Creating layer inception_4a/relu_3x3_reduce
I0422 19:39:10.143674 1975033856 net.cpp:84] Creating Layer inception_4a/relu_3x3_reduce
I0422 19:39:10.143678 1975033856 net.cpp:406] inception_4a/relu_3x3_reduce <- inception_4a/3x3_reduce
I0422 19:39:10.143682 1975033856 net.cpp:367] inception_4a/relu_3x3_reduce -> inception_4a/3x3_reduce (in-place)
I0422 19:39:10.143687 1975033856 net.cpp:122] Setting up inception_4a/relu_3x3_reduce
I0422 19:39:10.143690 1975033856 net.cpp:129] Top shape: 100 96 14 14 (1881600)
I0422 19:39:10.143694 1975033856 net.cpp:137] Memory required for data: 3605147200
I0422 19:39:10.143697 1975033856 layer_factory.hpp:77] Creating layer inception_4a/3x3
I0422 19:39:10.143709 1975033856 net.cpp:84] Creating Layer inception_4a/3x3
I0422 19:39:10.143713 1975033856 net.cpp:406] inception_4a/3x3 <- inception_4a/3x3_reduce
I0422 19:39:10.143718 1975033856 net.cpp:380] inception_4a/3x3 -> inception_4a/3x3
I0422 19:39:10.145124 1975033856 net.cpp:122] Setting up inception_4a/3x3
I0422 19:39:10.145131 1975033856 net.cpp:129] Top shape: 100 208 14 14 (4076800)
I0422 19:39:10.145146 1975033856 net.cpp:137] Memory required for data: 3621454400
I0422 19:39:10.145151 1975033856 layer_factory.hpp:77] Creating layer inception_4a/relu_3x3
I0422 19:39:10.145164 1975033856 net.cpp:84] Creating Layer inception_4a/relu_3x3
I0422 19:39:10.145169 1975033856 net.cpp:406] inception_4a/relu_3x3 <- inception_4a/3x3
I0422 19:39:10.145174 1975033856 net.cpp:367] inception_4a/relu_3x3 -> inception_4a/3x3 (in-place)
I0422 19:39:10.145179 1975033856 net.cpp:122] Setting up inception_4a/relu_3x3
I0422 19:39:10.145181 1975033856 net.cpp:129] Top shape: 100 208 14 14 (4076800)
I0422 19:39:10.145186 1975033856 net.cpp:137] Memory required for data: 3637761600
I0422 19:39:10.145190 1975033856 layer_factory.hpp:77] Creating layer inception_4a/5x5_reduce
I0422 19:39:10.145195 1975033856 net.cpp:84] Creating Layer inception_4a/5x5_reduce
I0422 19:39:10.145200 1975033856 net.cpp:406] inception_4a/5x5_reduce <- pool3/3x3_s2_pool3/3x3_s2_0_split_2
I0422 19:39:10.145205 1975033856 net.cpp:380] inception_4a/5x5_reduce -> inception_4a/5x5_reduce
I0422 19:39:10.145279 1975033856 net.cpp:122] Setting up inception_4a/5x5_reduce
I0422 19:39:10.145283 1975033856 net.cpp:129] Top shape: 100 16 14 14 (313600)
I0422 19:39:10.145287 1975033856 net.cpp:137] Memory required for data: 3639016000
I0422 19:39:10.145292 1975033856 layer_factory.hpp:77] Creating layer inception_4a/relu_5x5_reduce
I0422 19:39:10.145297 1975033856 net.cpp:84] Creating Layer inception_4a/relu_5x5_reduce
I0422 19:39:10.145300 1975033856 net.cpp:406] inception_4a/relu_5x5_reduce <- inception_4a/5x5_reduce
I0422 19:39:10.145304 1975033856 net.cpp:367] inception_4a/relu_5x5_reduce -> inception_4a/5x5_reduce (in-place)
I0422 19:39:10.145320 1975033856 net.cpp:122] Setting up inception_4a/relu_5x5_reduce
I0422 19:39:10.145324 1975033856 net.cpp:129] Top shape: 100 16 14 14 (313600)
I0422 19:39:10.145328 1975033856 net.cpp:137] Memory required for data: 3640270400
I0422 19:39:10.145331 1975033856 layer_factory.hpp:77] Creating layer inception_4a/5x5
I0422 19:39:10.145337 1975033856 net.cpp:84] Creating Layer inception_4a/5x5
I0422 19:39:10.145341 1975033856 net.cpp:406] inception_4a/5x5 <- inception_4a/5x5_reduce
I0422 19:39:10.145346 1975033856 net.cpp:380] inception_4a/5x5 -> inception_4a/5x5
I0422 19:39:10.145521 1975033856 net.cpp:122] Setting up inception_4a/5x5
I0422 19:39:10.145526 1975033856 net.cpp:129] Top shape: 100 48 14 14 (940800)
I0422 19:39:10.145540 1975033856 net.cpp:137] Memory required for data: 3644033600
I0422 19:39:10.145545 1975033856 layer_factory.hpp:77] Creating layer inception_4a/relu_5x5
I0422 19:39:10.145550 1975033856 net.cpp:84] Creating Layer inception_4a/relu_5x5
I0422 19:39:10.145553 1975033856 net.cpp:406] inception_4a/relu_5x5 <- inception_4a/5x5
I0422 19:39:10.145557 1975033856 net.cpp:367] inception_4a/relu_5x5 -> inception_4a/5x5 (in-place)
I0422 19:39:10.145561 1975033856 net.cpp:122] Setting up inception_4a/relu_5x5
I0422 19:39:10.145565 1975033856 net.cpp:129] Top shape: 100 48 14 14 (940800)
I0422 19:39:10.145568 1975033856 net.cpp:137] Memory required for data: 3647796800
I0422 19:39:10.145572 1975033856 layer_factory.hpp:77] Creating layer inception_4a/pool
I0422 19:39:10.145577 1975033856 net.cpp:84] Creating Layer inception_4a/pool
I0422 19:39:10.145581 1975033856 net.cpp:406] inception_4a/pool <- pool3/3x3_s2_pool3/3x3_s2_0_split_3
I0422 19:39:10.145586 1975033856 net.cpp:380] inception_4a/pool -> inception_4a/pool
I0422 19:39:10.145591 1975033856 net.cpp:122] Setting up inception_4a/pool
I0422 19:39:10.145594 1975033856 net.cpp:129] Top shape: 100 480 14 14 (9408000)
I0422 19:39:10.145599 1975033856 net.cpp:137] Memory required for data: 3685428800
I0422 19:39:10.145603 1975033856 layer_factory.hpp:77] Creating layer inception_4a/pool_proj
I0422 19:39:10.145612 1975033856 net.cpp:84] Creating Layer inception_4a/pool_proj
I0422 19:39:10.145617 1975033856 net.cpp:406] inception_4a/pool_proj <- inception_4a/pool
I0422 19:39:10.145622 1975033856 net.cpp:380] inception_4a/pool_proj -> inception_4a/pool_proj
I0422 19:39:10.145882 1975033856 net.cpp:122] Setting up inception_4a/pool_proj
I0422 19:39:10.145887 1975033856 net.cpp:129] Top shape: 100 64 14 14 (1254400)
I0422 19:39:10.145902 1975033856 net.cpp:137] Memory required for data: 3690446400
I0422 19:39:10.145907 1975033856 layer_factory.hpp:77] Creating layer inception_4a/relu_pool_proj
I0422 19:39:10.145911 1975033856 net.cpp:84] Creating Layer inception_4a/relu_pool_proj
I0422 19:39:10.145915 1975033856 net.cpp:406] inception_4a/relu_pool_proj <- inception_4a/pool_proj
I0422 19:39:10.145920 1975033856 net.cpp:367] inception_4a/relu_pool_proj -> inception_4a/pool_proj (in-place)
I0422 19:39:10.145925 1975033856 net.cpp:122] Setting up inception_4a/relu_pool_proj
I0422 19:39:10.145927 1975033856 net.cpp:129] Top shape: 100 64 14 14 (1254400)
I0422 19:39:10.145931 1975033856 net.cpp:137] Memory required for data: 3695464000
I0422 19:39:10.145934 1975033856 layer_factory.hpp:77] Creating layer inception_4a/output
I0422 19:39:10.145939 1975033856 net.cpp:84] Creating Layer inception_4a/output
I0422 19:39:10.145943 1975033856 net.cpp:406] inception_4a/output <- inception_4a/1x1
I0422 19:39:10.145947 1975033856 net.cpp:406] inception_4a/output <- inception_4a/3x3
I0422 19:39:10.145951 1975033856 net.cpp:406] inception_4a/output <- inception_4a/5x5
I0422 19:39:10.145954 1975033856 net.cpp:406] inception_4a/output <- inception_4a/pool_proj
I0422 19:39:10.145958 1975033856 net.cpp:380] inception_4a/output -> inception_4a/output
I0422 19:39:10.145964 1975033856 net.cpp:122] Setting up inception_4a/output
I0422 19:39:10.145968 1975033856 net.cpp:129] Top shape: 100 512 14 14 (10035200)
I0422 19:39:10.145988 1975033856 net.cpp:137] Memory required for data: 3735604800
I0422 19:39:10.145992 1975033856 layer_factory.hpp:77] Creating layer inception_4a/output_inception_4a/output_0_split
I0422 19:39:10.145998 1975033856 net.cpp:84] Creating Layer inception_4a/output_inception_4a/output_0_split
I0422 19:39:10.146003 1975033856 net.cpp:406] inception_4a/output_inception_4a/output_0_split <- inception_4a/output
I0422 19:39:10.146008 1975033856 net.cpp:380] inception_4a/output_inception_4a/output_0_split -> inception_4a/output_inception_4a/output_0_split_0
I0422 19:39:10.146013 1975033856 net.cpp:380] inception_4a/output_inception_4a/output_0_split -> inception_4a/output_inception_4a/output_0_split_1
I0422 19:39:10.146018 1975033856 net.cpp:380] inception_4a/output_inception_4a/output_0_split -> inception_4a/output_inception_4a/output_0_split_2
I0422 19:39:10.146024 1975033856 net.cpp:380] inception_4a/output_inception_4a/output_0_split -> inception_4a/output_inception_4a/output_0_split_3
I0422 19:39:10.146029 1975033856 net.cpp:380] inception_4a/output_inception_4a/output_0_split -> inception_4a/output_inception_4a/output_0_split_4
I0422 19:39:10.146035 1975033856 net.cpp:122] Setting up inception_4a/output_inception_4a/output_0_split
I0422 19:39:10.146039 1975033856 net.cpp:129] Top shape: 100 512 14 14 (10035200)
I0422 19:39:10.146044 1975033856 net.cpp:129] Top shape: 100 512 14 14 (10035200)
I0422 19:39:10.146049 1975033856 net.cpp:129] Top shape: 100 512 14 14 (10035200)
I0422 19:39:10.146052 1975033856 net.cpp:129] Top shape: 100 512 14 14 (10035200)
I0422 19:39:10.146056 1975033856 net.cpp:129] Top shape: 100 512 14 14 (10035200)
I0422 19:39:10.146060 1975033856 net.cpp:137] Memory required for data: 3936308800
I0422 19:39:10.146064 1975033856 layer_factory.hpp:77] Creating layer loss1/ave_pool
I0422 19:39:10.146069 1975033856 net.cpp:84] Creating Layer loss1/ave_pool
I0422 19:39:10.146072 1975033856 net.cpp:406] loss1/ave_pool <- inception_4a/output_inception_4a/output_0_split_0
I0422 19:39:10.146076 1975033856 net.cpp:380] loss1/ave_pool -> loss1/ave_pool
I0422 19:39:10.146081 1975033856 net.cpp:122] Setting up loss1/ave_pool
I0422 19:39:10.146085 1975033856 net.cpp:129] Top shape: 100 512 4 4 (819200)
I0422 19:39:10.146088 1975033856 net.cpp:137] Memory required for data: 3939585600
I0422 19:39:10.146091 1975033856 layer_factory.hpp:77] Creating layer loss1/conv
I0422 19:39:10.146097 1975033856 net.cpp:84] Creating Layer loss1/conv
I0422 19:39:10.146100 1975033856 net.cpp:406] loss1/conv <- loss1/ave_pool
I0422 19:39:10.146106 1975033856 net.cpp:380] loss1/conv -> loss1/conv
I0422 19:39:10.146679 1975033856 net.cpp:122] Setting up loss1/conv
I0422 19:39:10.146688 1975033856 net.cpp:129] Top shape: 100 128 4 4 (204800)
I0422 19:39:10.146703 1975033856 net.cpp:137] Memory required for data: 3940404800
I0422 19:39:10.146708 1975033856 layer_factory.hpp:77] Creating layer loss1/relu_conv
I0422 19:39:10.146711 1975033856 net.cpp:84] Creating Layer loss1/relu_conv
I0422 19:39:10.146715 1975033856 net.cpp:406] loss1/relu_conv <- loss1/conv
I0422 19:39:10.146719 1975033856 net.cpp:367] loss1/relu_conv -> loss1/conv (in-place)
I0422 19:39:10.146724 1975033856 net.cpp:122] Setting up loss1/relu_conv
I0422 19:39:10.146728 1975033856 net.cpp:129] Top shape: 100 128 4 4 (204800)
I0422 19:39:10.146731 1975033856 net.cpp:137] Memory required for data: 3941224000
I0422 19:39:10.146735 1975033856 layer_factory.hpp:77] Creating layer loss1/fc
I0422 19:39:10.146749 1975033856 net.cpp:84] Creating Layer loss1/fc
I0422 19:39:10.146751 1975033856 net.cpp:406] loss1/fc <- loss1/conv
I0422 19:39:10.146755 1975033856 net.cpp:380] loss1/fc -> loss1/fc
I0422 19:39:10.163789 1975033856 net.cpp:122] Setting up loss1/fc
I0422 19:39:10.163815 1975033856 net.cpp:129] Top shape: 100 1024 (102400)
I0422 19:39:10.163821 1975033856 net.cpp:137] Memory required for data: 3941633600
I0422 19:39:10.163830 1975033856 layer_factory.hpp:77] Creating layer loss1/relu_fc
I0422 19:39:10.163878 1975033856 net.cpp:84] Creating Layer loss1/relu_fc
I0422 19:39:10.163923 1975033856 net.cpp:406] loss1/relu_fc <- loss1/fc
I0422 19:39:10.163930 1975033856 net.cpp:367] loss1/relu_fc -> loss1/fc (in-place)
I0422 19:39:10.163938 1975033856 net.cpp:122] Setting up loss1/relu_fc
I0422 19:39:10.163942 1975033856 net.cpp:129] Top shape: 100 1024 (102400)
I0422 19:39:10.163946 1975033856 net.cpp:137] Memory required for data: 3942043200
I0422 19:39:10.163950 1975033856 layer_factory.hpp:77] Creating layer loss1/drop_fc
I0422 19:39:10.163974 1975033856 net.cpp:84] Creating Layer loss1/drop_fc
I0422 19:39:10.163978 1975033856 net.cpp:406] loss1/drop_fc <- loss1/fc
I0422 19:39:10.163983 1975033856 net.cpp:367] loss1/drop_fc -> loss1/fc (in-place)
I0422 19:39:10.163995 1975033856 net.cpp:122] Setting up loss1/drop_fc
I0422 19:39:10.163998 1975033856 net.cpp:129] Top shape: 100 1024 (102400)
I0422 19:39:10.164002 1975033856 net.cpp:137] Memory required for data: 3942452800
I0422 19:39:10.164016 1975033856 layer_factory.hpp:77] Creating layer loss1/classifier
I0422 19:39:10.164023 1975033856 net.cpp:84] Creating Layer loss1/classifier
I0422 19:39:10.164027 1975033856 net.cpp:406] loss1/classifier <- loss1/fc
I0422 19:39:10.164032 1975033856 net.cpp:380] loss1/classifier -> loss1/classifier
I0422 19:39:10.172128 1975033856 net.cpp:122] Setting up loss1/classifier
I0422 19:39:10.172145 1975033856 net.cpp:129] Top shape: 100 1000 (100000)
I0422 19:39:10.172150 1975033856 net.cpp:137] Memory required for data: 3942852800
I0422 19:39:10.172157 1975033856 layer_factory.hpp:77] Creating layer loss1/loss
I0422 19:39:10.172168 1975033856 net.cpp:84] Creating Layer loss1/loss
I0422 19:39:10.172173 1975033856 net.cpp:406] loss1/loss <- loss1/classifier
I0422 19:39:10.172178 1975033856 net.cpp:406] loss1/loss <- label_data_1_split_0
I0422 19:39:10.172183 1975033856 net.cpp:380] loss1/loss -> loss1/loss1
I0422 19:39:10.172195 1975033856 layer_factory.hpp:77] Creating layer loss1/loss
I0422 19:39:10.172408 1975033856 net.cpp:122] Setting up loss1/loss
I0422 19:39:10.172415 1975033856 net.cpp:129] Top shape: (1)
I0422 19:39:10.172420 1975033856 net.cpp:132]     with loss weight 0.3
I0422 19:39:10.172431 1975033856 net.cpp:137] Memory required for data: 3942852804
I0422 19:39:10.172435 1975033856 layer_factory.hpp:77] Creating layer inception_4b/1x1
I0422 19:39:10.172444 1975033856 net.cpp:84] Creating Layer inception_4b/1x1
I0422 19:39:10.172451 1975033856 net.cpp:406] inception_4b/1x1 <- inception_4a/output_inception_4a/output_0_split_1
I0422 19:39:10.172461 1975033856 net.cpp:380] inception_4b/1x1 -> inception_4b/1x1
I0422 19:39:10.173318 1975033856 net.cpp:122] Setting up inception_4b/1x1
I0422 19:39:10.173342 1975033856 net.cpp:129] Top shape: 100 160 14 14 (3136000)
I0422 19:39:10.173359 1975033856 net.cpp:137] Memory required for data: 3955396804
I0422 19:39:10.173367 1975033856 layer_factory.hpp:77] Creating layer inception_4b/relu_1x1
I0422 19:39:10.173373 1975033856 net.cpp:84] Creating Layer inception_4b/relu_1x1
I0422 19:39:10.173378 1975033856 net.cpp:406] inception_4b/relu_1x1 <- inception_4b/1x1
I0422 19:39:10.173383 1975033856 net.cpp:367] inception_4b/relu_1x1 -> inception_4b/1x1 (in-place)
I0422 19:39:10.173391 1975033856 net.cpp:122] Setting up inception_4b/relu_1x1
I0422 19:39:10.173394 1975033856 net.cpp:129] Top shape: 100 160 14 14 (3136000)
I0422 19:39:10.173399 1975033856 net.cpp:137] Memory required for data: 3967940804
I0422 19:39:10.173403 1975033856 layer_factory.hpp:77] Creating layer inception_4b/3x3_reduce
I0422 19:39:10.173409 1975033856 net.cpp:84] Creating Layer inception_4b/3x3_reduce
I0422 19:39:10.173414 1975033856 net.cpp:406] inception_4b/3x3_reduce <- inception_4a/output_inception_4a/output_0_split_2
I0422 19:39:10.173419 1975033856 net.cpp:380] inception_4b/3x3_reduce -> inception_4b/3x3_reduce
I0422 19:39:10.173946 1975033856 net.cpp:122] Setting up inception_4b/3x3_reduce
I0422 19:39:10.173954 1975033856 net.cpp:129] Top shape: 100 112 14 14 (2195200)
I0422 19:39:10.173969 1975033856 net.cpp:137] Memory required for data: 3976721604
I0422 19:39:10.173998 1975033856 layer_factory.hpp:77] Creating layer inception_4b/relu_3x3_reduce
I0422 19:39:10.174005 1975033856 net.cpp:84] Creating Layer inception_4b/relu_3x3_reduce
I0422 19:39:10.174008 1975033856 net.cpp:406] inception_4b/relu_3x3_reduce <- inception_4b/3x3_reduce
I0422 19:39:10.174013 1975033856 net.cpp:367] inception_4b/relu_3x3_reduce -> inception_4b/3x3_reduce (in-place)
I0422 19:39:10.174019 1975033856 net.cpp:122] Setting up inception_4b/relu_3x3_reduce
I0422 19:39:10.174024 1975033856 net.cpp:129] Top shape: 100 112 14 14 (2195200)
I0422 19:39:10.174029 1975033856 net.cpp:137] Memory required for data: 3985502404
I0422 19:39:10.174033 1975033856 layer_factory.hpp:77] Creating layer inception_4b/3x3
I0422 19:39:10.174044 1975033856 net.cpp:84] Creating Layer inception_4b/3x3
I0422 19:39:10.174051 1975033856 net.cpp:406] inception_4b/3x3 <- inception_4b/3x3_reduce
I0422 19:39:10.174059 1975033856 net.cpp:380] inception_4b/3x3 -> inception_4b/3x3
I0422 19:39:10.175833 1975033856 net.cpp:122] Setting up inception_4b/3x3
I0422 19:39:10.175842 1975033856 net.cpp:129] Top shape: 100 224 14 14 (4390400)
I0422 19:39:10.175856 1975033856 net.cpp:137] Memory required for data: 4003064004
I0422 19:39:10.175861 1975033856 layer_factory.hpp:77] Creating layer inception_4b/relu_3x3
I0422 19:39:10.175866 1975033856 net.cpp:84] Creating Layer inception_4b/relu_3x3
I0422 19:39:10.175870 1975033856 net.cpp:406] inception_4b/relu_3x3 <- inception_4b/3x3
I0422 19:39:10.175874 1975033856 net.cpp:367] inception_4b/relu_3x3 -> inception_4b/3x3 (in-place)
I0422 19:39:10.175879 1975033856 net.cpp:122] Setting up inception_4b/relu_3x3
I0422 19:39:10.175882 1975033856 net.cpp:129] Top shape: 100 224 14 14 (4390400)
I0422 19:39:10.175887 1975033856 net.cpp:137] Memory required for data: 4020625604
I0422 19:39:10.175890 1975033856 layer_factory.hpp:77] Creating layer inception_4b/5x5_reduce
I0422 19:39:10.175896 1975033856 net.cpp:84] Creating Layer inception_4b/5x5_reduce
I0422 19:39:10.175900 1975033856 net.cpp:406] inception_4b/5x5_reduce <- inception_4a/output_inception_4a/output_0_split_3
I0422 19:39:10.175906 1975033856 net.cpp:380] inception_4b/5x5_reduce -> inception_4b/5x5_reduce
I0422 19:39:10.176018 1975033856 net.cpp:122] Setting up inception_4b/5x5_reduce
I0422 19:39:10.176023 1975033856 net.cpp:129] Top shape: 100 24 14 14 (470400)
I0422 19:39:10.176028 1975033856 net.cpp:137] Memory required for data: 4022507204
I0422 19:39:10.176031 1975033856 layer_factory.hpp:77] Creating layer inception_4b/relu_5x5_reduce
I0422 19:39:10.176038 1975033856 net.cpp:84] Creating Layer inception_4b/relu_5x5_reduce
I0422 19:39:10.176044 1975033856 net.cpp:406] inception_4b/relu_5x5_reduce <- inception_4b/5x5_reduce
I0422 19:39:10.176053 1975033856 net.cpp:367] inception_4b/relu_5x5_reduce -> inception_4b/5x5_reduce (in-place)
I0422 19:39:10.176059 1975033856 net.cpp:122] Setting up inception_4b/relu_5x5_reduce
I0422 19:39:10.176061 1975033856 net.cpp:129] Top shape: 100 24 14 14 (470400)
I0422 19:39:10.176066 1975033856 net.cpp:137] Memory required for data: 4024388804
I0422 19:39:10.176069 1975033856 layer_factory.hpp:77] Creating layer inception_4b/5x5
I0422 19:39:10.176084 1975033856 net.cpp:84] Creating Layer inception_4b/5x5
I0422 19:39:10.176097 1975033856 net.cpp:406] inception_4b/5x5 <- inception_4b/5x5_reduce
I0422 19:39:10.176106 1975033856 net.cpp:380] inception_4b/5x5 -> inception_4b/5x5
I0422 19:39:10.176452 1975033856 net.cpp:122] Setting up inception_4b/5x5
I0422 19:39:10.176458 1975033856 net.cpp:129] Top shape: 100 64 14 14 (1254400)
I0422 19:39:10.176473 1975033856 net.cpp:137] Memory required for data: 4029406404
I0422 19:39:10.176478 1975033856 layer_factory.hpp:77] Creating layer inception_4b/relu_5x5
I0422 19:39:10.176483 1975033856 net.cpp:84] Creating Layer inception_4b/relu_5x5
I0422 19:39:10.176487 1975033856 net.cpp:406] inception_4b/relu_5x5 <- inception_4b/5x5
I0422 19:39:10.176491 1975033856 net.cpp:367] inception_4b/relu_5x5 -> inception_4b/5x5 (in-place)
I0422 19:39:10.176497 1975033856 net.cpp:122] Setting up inception_4b/relu_5x5
I0422 19:39:10.176515 1975033856 net.cpp:129] Top shape: 100 64 14 14 (1254400)
I0422 19:39:10.176522 1975033856 net.cpp:137] Memory required for data: 4034424004
I0422 19:39:10.176524 1975033856 layer_factory.hpp:77] Creating layer inception_4b/pool
I0422 19:39:10.176530 1975033856 net.cpp:84] Creating Layer inception_4b/pool
I0422 19:39:10.176534 1975033856 net.cpp:406] inception_4b/pool <- inception_4a/output_inception_4a/output_0_split_4
I0422 19:39:10.176540 1975033856 net.cpp:380] inception_4b/pool -> inception_4b/pool
I0422 19:39:10.176553 1975033856 net.cpp:122] Setting up inception_4b/pool
I0422 19:39:10.176558 1975033856 net.cpp:129] Top shape: 100 512 14 14 (10035200)
I0422 19:39:10.176561 1975033856 net.cpp:137] Memory required for data: 4074564804
I0422 19:39:10.176565 1975033856 layer_factory.hpp:77] Creating layer inception_4b/pool_proj
I0422 19:39:10.176573 1975033856 net.cpp:84] Creating Layer inception_4b/pool_proj
I0422 19:39:10.176575 1975033856 net.cpp:406] inception_4b/pool_proj <- inception_4b/pool
I0422 19:39:10.176580 1975033856 net.cpp:380] inception_4b/pool_proj -> inception_4b/pool_proj
I0422 19:39:10.176862 1975033856 net.cpp:122] Setting up inception_4b/pool_proj
I0422 19:39:10.176867 1975033856 net.cpp:129] Top shape: 100 64 14 14 (1254400)
I0422 19:39:10.176882 1975033856 net.cpp:137] Memory required for data: 4079582404
I0422 19:39:10.176887 1975033856 layer_factory.hpp:77] Creating layer inception_4b/relu_pool_proj
I0422 19:39:10.176892 1975033856 net.cpp:84] Creating Layer inception_4b/relu_pool_proj
I0422 19:39:10.176895 1975033856 net.cpp:406] inception_4b/relu_pool_proj <- inception_4b/pool_proj
I0422 19:39:10.176899 1975033856 net.cpp:367] inception_4b/relu_pool_proj -> inception_4b/pool_proj (in-place)
I0422 19:39:10.176904 1975033856 net.cpp:122] Setting up inception_4b/relu_pool_proj
I0422 19:39:10.176908 1975033856 net.cpp:129] Top shape: 100 64 14 14 (1254400)
I0422 19:39:10.176911 1975033856 net.cpp:137] Memory required for data: 4084600004
I0422 19:39:10.176915 1975033856 layer_factory.hpp:77] Creating layer inception_4b/output
I0422 19:39:10.176920 1975033856 net.cpp:84] Creating Layer inception_4b/output
I0422 19:39:10.176923 1975033856 net.cpp:406] inception_4b/output <- inception_4b/1x1
I0422 19:39:10.176928 1975033856 net.cpp:406] inception_4b/output <- inception_4b/3x3
I0422 19:39:10.176931 1975033856 net.cpp:406] inception_4b/output <- inception_4b/5x5
I0422 19:39:10.176935 1975033856 net.cpp:406] inception_4b/output <- inception_4b/pool_proj
I0422 19:39:10.176939 1975033856 net.cpp:380] inception_4b/output -> inception_4b/output
I0422 19:39:10.176946 1975033856 net.cpp:122] Setting up inception_4b/output
I0422 19:39:10.176949 1975033856 net.cpp:129] Top shape: 100 512 14 14 (10035200)
I0422 19:39:10.176954 1975033856 net.cpp:137] Memory required for data: 4124740804
I0422 19:39:10.176957 1975033856 layer_factory.hpp:77] Creating layer inception_4b/output_inception_4b/output_0_split
I0422 19:39:10.176964 1975033856 net.cpp:84] Creating Layer inception_4b/output_inception_4b/output_0_split
I0422 19:39:10.176966 1975033856 net.cpp:406] inception_4b/output_inception_4b/output_0_split <- inception_4b/output
I0422 19:39:10.176971 1975033856 net.cpp:380] inception_4b/output_inception_4b/output_0_split -> inception_4b/output_inception_4b/output_0_split_0
I0422 19:39:10.176976 1975033856 net.cpp:380] inception_4b/output_inception_4b/output_0_split -> inception_4b/output_inception_4b/output_0_split_1
I0422 19:39:10.176982 1975033856 net.cpp:380] inception_4b/output_inception_4b/output_0_split -> inception_4b/output_inception_4b/output_0_split_2
I0422 19:39:10.176988 1975033856 net.cpp:380] inception_4b/output_inception_4b/output_0_split -> inception_4b/output_inception_4b/output_0_split_3
I0422 19:39:10.176995 1975033856 net.cpp:122] Setting up inception_4b/output_inception_4b/output_0_split
I0422 19:39:10.177002 1975033856 net.cpp:129] Top shape: 100 512 14 14 (10035200)
I0422 19:39:10.177007 1975033856 net.cpp:129] Top shape: 100 512 14 14 (10035200)
I0422 19:39:10.177022 1975033856 net.cpp:129] Top shape: 100 512 14 14 (10035200)
I0422 19:39:10.177028 1975033856 net.cpp:129] Top shape: 100 512 14 14 (10035200)
I0422 19:39:10.177032 1975033856 net.cpp:137] Memory required for data: 4285304004
I0422 19:39:10.177037 1975033856 layer_factory.hpp:77] Creating layer inception_4c/1x1
I0422 19:39:10.177048 1975033856 net.cpp:84] Creating Layer inception_4c/1x1
I0422 19:39:10.177052 1975033856 net.cpp:406] inception_4c/1x1 <- inception_4b/output_inception_4b/output_0_split_0
I0422 19:39:10.177057 1975033856 net.cpp:380] inception_4c/1x1 -> inception_4c/1x1
I0422 19:39:10.177633 1975033856 net.cpp:122] Setting up inception_4c/1x1
I0422 19:39:10.177639 1975033856 net.cpp:129] Top shape: 100 128 14 14 (2508800)
I0422 19:39:10.177654 1975033856 net.cpp:137] Memory required for data: 4295339204
I0422 19:39:10.177659 1975033856 layer_factory.hpp:77] Creating layer inception_4c/relu_1x1
I0422 19:39:10.177664 1975033856 net.cpp:84] Creating Layer inception_4c/relu_1x1
I0422 19:39:10.177667 1975033856 net.cpp:406] inception_4c/relu_1x1 <- inception_4c/1x1
I0422 19:39:10.177671 1975033856 net.cpp:367] inception_4c/relu_1x1 -> inception_4c/1x1 (in-place)
I0422 19:39:10.177676 1975033856 net.cpp:122] Setting up inception_4c/relu_1x1
I0422 19:39:10.177680 1975033856 net.cpp:129] Top shape: 100 128 14 14 (2508800)
I0422 19:39:10.177685 1975033856 net.cpp:137] Memory required for data: 4305374404
I0422 19:39:10.177687 1975033856 layer_factory.hpp:77] Creating layer inception_4c/3x3_reduce
I0422 19:39:10.177693 1975033856 net.cpp:84] Creating Layer inception_4c/3x3_reduce
I0422 19:39:10.177697 1975033856 net.cpp:406] inception_4c/3x3_reduce <- inception_4b/output_inception_4b/output_0_split_1
I0422 19:39:10.177702 1975033856 net.cpp:380] inception_4c/3x3_reduce -> inception_4c/3x3_reduce
I0422 19:39:10.178231 1975033856 net.cpp:122] Setting up inception_4c/3x3_reduce
I0422 19:39:10.178236 1975033856 net.cpp:129] Top shape: 100 128 14 14 (2508800)
I0422 19:39:10.178251 1975033856 net.cpp:137] Memory required for data: 4315409604
I0422 19:39:10.178256 1975033856 layer_factory.hpp:77] Creating layer inception_4c/relu_3x3_reduce
I0422 19:39:10.178261 1975033856 net.cpp:84] Creating Layer inception_4c/relu_3x3_reduce
I0422 19:39:10.178266 1975033856 net.cpp:406] inception_4c/relu_3x3_reduce <- inception_4c/3x3_reduce
I0422 19:39:10.178273 1975033856 net.cpp:367] inception_4c/relu_3x3_reduce -> inception_4c/3x3_reduce (in-place)
I0422 19:39:10.178288 1975033856 net.cpp:122] Setting up inception_4c/relu_3x3_reduce
I0422 19:39:10.178292 1975033856 net.cpp:129] Top shape: 100 128 14 14 (2508800)
I0422 19:39:10.178297 1975033856 net.cpp:137] Memory required for data: 4325444804
I0422 19:39:10.178300 1975033856 layer_factory.hpp:77] Creating layer inception_4c/3x3
I0422 19:39:10.178308 1975033856 net.cpp:84] Creating Layer inception_4c/3x3
I0422 19:39:10.178311 1975033856 net.cpp:406] inception_4c/3x3 <- inception_4c/3x3_reduce
I0422 19:39:10.178316 1975033856 net.cpp:380] inception_4c/3x3 -> inception_4c/3x3
I0422 19:39:10.180610 1975033856 net.cpp:122] Setting up inception_4c/3x3
I0422 19:39:10.180618 1975033856 net.cpp:129] Top shape: 100 256 14 14 (5017600)
I0422 19:39:10.180632 1975033856 net.cpp:137] Memory required for data: 4345515204
I0422 19:39:10.180642 1975033856 layer_factory.hpp:77] Creating layer inception_4c/relu_3x3
I0422 19:39:10.180647 1975033856 net.cpp:84] Creating Layer inception_4c/relu_3x3
I0422 19:39:10.180651 1975033856 net.cpp:406] inception_4c/relu_3x3 <- inception_4c/3x3
I0422 19:39:10.180655 1975033856 net.cpp:367] inception_4c/relu_3x3 -> inception_4c/3x3 (in-place)
I0422 19:39:10.180660 1975033856 net.cpp:122] Setting up inception_4c/relu_3x3
I0422 19:39:10.180663 1975033856 net.cpp:129] Top shape: 100 256 14 14 (5017600)
I0422 19:39:10.180668 1975033856 net.cpp:137] Memory required for data: 4365585604
I0422 19:39:10.180671 1975033856 layer_factory.hpp:77] Creating layer inception_4c/5x5_reduce
I0422 19:39:10.180677 1975033856 net.cpp:84] Creating Layer inception_4c/5x5_reduce
I0422 19:39:10.180693 1975033856 net.cpp:406] inception_4c/5x5_reduce <- inception_4b/output_inception_4b/output_0_split_2
I0422 19:39:10.180699 1975033856 net.cpp:380] inception_4c/5x5_reduce -> inception_4c/5x5_reduce
I0422 19:39:10.180830 1975033856 net.cpp:122] Setting up inception_4c/5x5_reduce
I0422 19:39:10.180836 1975033856 net.cpp:129] Top shape: 100 24 14 14 (470400)
I0422 19:39:10.180840 1975033856 net.cpp:137] Memory required for data: 4367467204
I0422 19:39:10.180845 1975033856 layer_factory.hpp:77] Creating layer inception_4c/relu_5x5_reduce
I0422 19:39:10.180850 1975033856 net.cpp:84] Creating Layer inception_4c/relu_5x5_reduce
I0422 19:39:10.180855 1975033856 net.cpp:406] inception_4c/relu_5x5_reduce <- inception_4c/5x5_reduce
I0422 19:39:10.180858 1975033856 net.cpp:367] inception_4c/relu_5x5_reduce -> inception_4c/5x5_reduce (in-place)
I0422 19:39:10.180863 1975033856 net.cpp:122] Setting up inception_4c/relu_5x5_reduce
I0422 19:39:10.180883 1975033856 net.cpp:129] Top shape: 100 24 14 14 (470400)
I0422 19:39:10.180897 1975033856 net.cpp:137] Memory required for data: 4369348804
I0422 19:39:10.180904 1975033856 layer_factory.hpp:77] Creating layer inception_4c/5x5
I0422 19:39:10.180917 1975033856 net.cpp:84] Creating Layer inception_4c/5x5
I0422 19:39:10.180925 1975033856 net.cpp:406] inception_4c/5x5 <- inception_4c/5x5_reduce
I0422 19:39:10.180935 1975033856 net.cpp:380] inception_4c/5x5 -> inception_4c/5x5
I0422 19:39:10.181319 1975033856 net.cpp:122] Setting up inception_4c/5x5
I0422 19:39:10.181332 1975033856 net.cpp:129] Top shape: 100 64 14 14 (1254400)
I0422 19:39:10.181337 1975033856 net.cpp:137] Memory required for data: 4374366404
I0422 19:39:10.181344 1975033856 layer_factory.hpp:77] Creating layer inception_4c/relu_5x5
I0422 19:39:10.181349 1975033856 net.cpp:84] Creating Layer inception_4c/relu_5x5
I0422 19:39:10.181354 1975033856 net.cpp:406] inception_4c/relu_5x5 <- inception_4c/5x5
I0422 19:39:10.181358 1975033856 net.cpp:367] inception_4c/relu_5x5 -> inception_4c/5x5 (in-place)
I0422 19:39:10.181365 1975033856 net.cpp:122] Setting up inception_4c/relu_5x5
I0422 19:39:10.181368 1975033856 net.cpp:129] Top shape: 100 64 14 14 (1254400)
I0422 19:39:10.181378 1975033856 net.cpp:137] Memory required for data: 4379384004
I0422 19:39:10.181383 1975033856 layer_factory.hpp:77] Creating layer inception_4c/pool
I0422 19:39:10.181390 1975033856 net.cpp:84] Creating Layer inception_4c/pool
I0422 19:39:10.181393 1975033856 net.cpp:406] inception_4c/pool <- inception_4b/output_inception_4b/output_0_split_3
I0422 19:39:10.181397 1975033856 net.cpp:380] inception_4c/pool -> inception_4c/pool
I0422 19:39:10.181406 1975033856 net.cpp:122] Setting up inception_4c/pool
I0422 19:39:10.181409 1975033856 net.cpp:129] Top shape: 100 512 14 14 (10035200)
I0422 19:39:10.181414 1975033856 net.cpp:137] Memory required for data: 4419524804
I0422 19:39:10.181418 1975033856 layer_factory.hpp:77] Creating layer inception_4c/pool_proj
I0422 19:39:10.181424 1975033856 net.cpp:84] Creating Layer inception_4c/pool_proj
I0422 19:39:10.181428 1975033856 net.cpp:406] inception_4c/pool_proj <- inception_4c/pool
I0422 19:39:10.181433 1975033856 net.cpp:380] inception_4c/pool_proj -> inception_4c/pool_proj
I0422 19:39:10.181763 1975033856 net.cpp:122] Setting up inception_4c/pool_proj
I0422 19:39:10.181776 1975033856 net.cpp:129] Top shape: 100 64 14 14 (1254400)
I0422 19:39:10.181780 1975033856 net.cpp:137] Memory required for data: 4424542404
I0422 19:39:10.181787 1975033856 layer_factory.hpp:77] Creating layer inception_4c/relu_pool_proj
I0422 19:39:10.181793 1975033856 net.cpp:84] Creating Layer inception_4c/relu_pool_proj
I0422 19:39:10.181798 1975033856 net.cpp:406] inception_4c/relu_pool_proj <- inception_4c/pool_proj
I0422 19:39:10.181803 1975033856 net.cpp:367] inception_4c/relu_pool_proj -> inception_4c/pool_proj (in-place)
I0422 19:39:10.181809 1975033856 net.cpp:122] Setting up inception_4c/relu_pool_proj
I0422 19:39:10.181814 1975033856 net.cpp:129] Top shape: 100 64 14 14 (1254400)
I0422 19:39:10.181835 1975033856 net.cpp:137] Memory required for data: 4429560004
I0422 19:39:10.181840 1975033856 layer_factory.hpp:77] Creating layer inception_4c/output
I0422 19:39:10.181846 1975033856 net.cpp:84] Creating Layer inception_4c/output
I0422 19:39:10.181849 1975033856 net.cpp:406] inception_4c/output <- inception_4c/1x1
I0422 19:39:10.181854 1975033856 net.cpp:406] inception_4c/output <- inception_4c/3x3
I0422 19:39:10.181859 1975033856 net.cpp:406] inception_4c/output <- inception_4c/5x5
I0422 19:39:10.181862 1975033856 net.cpp:406] inception_4c/output <- inception_4c/pool_proj
I0422 19:39:10.181866 1975033856 net.cpp:380] inception_4c/output -> inception_4c/output
I0422 19:39:10.181874 1975033856 net.cpp:122] Setting up inception_4c/output
I0422 19:39:10.181876 1975033856 net.cpp:129] Top shape: 100 512 14 14 (10035200)
I0422 19:39:10.181881 1975033856 net.cpp:137] Memory required for data: 4469700804
I0422 19:39:10.181885 1975033856 layer_factory.hpp:77] Creating layer inception_4c/output_inception_4c/output_0_split
I0422 19:39:10.181901 1975033856 net.cpp:84] Creating Layer inception_4c/output_inception_4c/output_0_split
I0422 19:39:10.181905 1975033856 net.cpp:406] inception_4c/output_inception_4c/output_0_split <- inception_4c/output
I0422 19:39:10.181910 1975033856 net.cpp:380] inception_4c/output_inception_4c/output_0_split -> inception_4c/output_inception_4c/output_0_split_0
I0422 19:39:10.181920 1975033856 net.cpp:380] inception_4c/output_inception_4c/output_0_split -> inception_4c/output_inception_4c/output_0_split_1
I0422 19:39:10.181926 1975033856 net.cpp:380] inception_4c/output_inception_4c/output_0_split -> inception_4c/output_inception_4c/output_0_split_2
I0422 19:39:10.181931 1975033856 net.cpp:380] inception_4c/output_inception_4c/output_0_split -> inception_4c/output_inception_4c/output_0_split_3
I0422 19:39:10.182000 1975033856 net.cpp:122] Setting up inception_4c/output_inception_4c/output_0_split
I0422 19:39:10.182008 1975033856 net.cpp:129] Top shape: 100 512 14 14 (10035200)
I0422 19:39:10.182014 1975033856 net.cpp:129] Top shape: 100 512 14 14 (10035200)
I0422 19:39:10.182019 1975033856 net.cpp:129] Top shape: 100 512 14 14 (10035200)
I0422 19:39:10.182025 1975033856 net.cpp:129] Top shape: 100 512 14 14 (10035200)
I0422 19:39:10.182034 1975033856 net.cpp:137] Memory required for data: 4630264004
I0422 19:39:10.182040 1975033856 layer_factory.hpp:77] Creating layer inception_4d/1x1
I0422 19:39:10.182051 1975033856 net.cpp:84] Creating Layer inception_4d/1x1
I0422 19:39:10.182056 1975033856 net.cpp:406] inception_4d/1x1 <- inception_4c/output_inception_4c/output_0_split_0
I0422 19:39:10.182065 1975033856 net.cpp:380] inception_4d/1x1 -> inception_4d/1x1
I0422 19:39:10.182685 1975033856 net.cpp:122] Setting up inception_4d/1x1
I0422 19:39:10.182695 1975033856 net.cpp:129] Top shape: 100 112 14 14 (2195200)
I0422 19:39:10.182713 1975033856 net.cpp:137] Memory required for data: 4639044804
I0422 19:39:10.182718 1975033856 layer_factory.hpp:77] Creating layer inception_4d/relu_1x1
I0422 19:39:10.182723 1975033856 net.cpp:84] Creating Layer inception_4d/relu_1x1
I0422 19:39:10.182727 1975033856 net.cpp:406] inception_4d/relu_1x1 <- inception_4d/1x1
I0422 19:39:10.182731 1975033856 net.cpp:367] inception_4d/relu_1x1 -> inception_4d/1x1 (in-place)
I0422 19:39:10.182739 1975033856 net.cpp:122] Setting up inception_4d/relu_1x1
I0422 19:39:10.182744 1975033856 net.cpp:129] Top shape: 100 112 14 14 (2195200)
I0422 19:39:10.182750 1975033856 net.cpp:137] Memory required for data: 4647825604
I0422 19:39:10.182754 1975033856 layer_factory.hpp:77] Creating layer inception_4d/3x3_reduce
I0422 19:39:10.182760 1975033856 net.cpp:84] Creating Layer inception_4d/3x3_reduce
I0422 19:39:10.182765 1975033856 net.cpp:406] inception_4d/3x3_reduce <- inception_4c/output_inception_4c/output_0_split_1
I0422 19:39:10.182788 1975033856 net.cpp:380] inception_4d/3x3_reduce -> inception_4d/3x3_reduce
I0422 19:39:10.183426 1975033856 net.cpp:122] Setting up inception_4d/3x3_reduce
I0422 19:39:10.183434 1975033856 net.cpp:129] Top shape: 100 144 14 14 (2822400)
I0422 19:39:10.183464 1975033856 net.cpp:137] Memory required for data: 4659115204
I0422 19:39:10.183470 1975033856 layer_factory.hpp:77] Creating layer inception_4d/relu_3x3_reduce
I0422 19:39:10.183480 1975033856 net.cpp:84] Creating Layer inception_4d/relu_3x3_reduce
I0422 19:39:10.183485 1975033856 net.cpp:406] inception_4d/relu_3x3_reduce <- inception_4d/3x3_reduce
I0422 19:39:10.183491 1975033856 net.cpp:367] inception_4d/relu_3x3_reduce -> inception_4d/3x3_reduce (in-place)
I0422 19:39:10.183497 1975033856 net.cpp:122] Setting up inception_4d/relu_3x3_reduce
I0422 19:39:10.183501 1975033856 net.cpp:129] Top shape: 100 144 14 14 (2822400)
I0422 19:39:10.183506 1975033856 net.cpp:137] Memory required for data: 4670404804
I0422 19:39:10.183508 1975033856 layer_factory.hpp:77] Creating layer inception_4d/3x3
I0422 19:39:10.183516 1975033856 net.cpp:84] Creating Layer inception_4d/3x3
I0422 19:39:10.183518 1975033856 net.cpp:406] inception_4d/3x3 <- inception_4d/3x3_reduce
I0422 19:39:10.183523 1975033856 net.cpp:380] inception_4d/3x3 -> inception_4d/3x3
I0422 19:39:10.186414 1975033856 net.cpp:122] Setting up inception_4d/3x3
I0422 19:39:10.186421 1975033856 net.cpp:129] Top shape: 100 288 14 14 (5644800)
I0422 19:39:10.186437 1975033856 net.cpp:137] Memory required for data: 4692984004
I0422 19:39:10.186441 1975033856 layer_factory.hpp:77] Creating layer inception_4d/relu_3x3
I0422 19:39:10.186446 1975033856 net.cpp:84] Creating Layer inception_4d/relu_3x3
I0422 19:39:10.186450 1975033856 net.cpp:406] inception_4d/relu_3x3 <- inception_4d/3x3
I0422 19:39:10.186455 1975033856 net.cpp:367] inception_4d/relu_3x3 -> inception_4d/3x3 (in-place)
I0422 19:39:10.186460 1975033856 net.cpp:122] Setting up inception_4d/relu_3x3
I0422 19:39:10.186465 1975033856 net.cpp:129] Top shape: 100 288 14 14 (5644800)
I0422 19:39:10.186468 1975033856 net.cpp:137] Memory required for data: 4715563204
I0422 19:39:10.186471 1975033856 layer_factory.hpp:77] Creating layer inception_4d/5x5_reduce
I0422 19:39:10.186477 1975033856 net.cpp:84] Creating Layer inception_4d/5x5_reduce
I0422 19:39:10.186481 1975033856 net.cpp:406] inception_4d/5x5_reduce <- inception_4c/output_inception_4c/output_0_split_2
I0422 19:39:10.186486 1975033856 net.cpp:380] inception_4d/5x5_reduce -> inception_4d/5x5_reduce
I0422 19:39:10.186630 1975033856 net.cpp:122] Setting up inception_4d/5x5_reduce
I0422 19:39:10.186635 1975033856 net.cpp:129] Top shape: 100 32 14 14 (627200)
I0422 19:39:10.186640 1975033856 net.cpp:137] Memory required for data: 4718072004
I0422 19:39:10.186645 1975033856 layer_factory.hpp:77] Creating layer inception_4d/relu_5x5_reduce
I0422 19:39:10.186650 1975033856 net.cpp:84] Creating Layer inception_4d/relu_5x5_reduce
I0422 19:39:10.186656 1975033856 net.cpp:406] inception_4d/relu_5x5_reduce <- inception_4d/5x5_reduce
I0422 19:39:10.186661 1975033856 net.cpp:367] inception_4d/relu_5x5_reduce -> inception_4d/5x5_reduce (in-place)
I0422 19:39:10.186666 1975033856 net.cpp:122] Setting up inception_4d/relu_5x5_reduce
I0422 19:39:10.186669 1975033856 net.cpp:129] Top shape: 100 32 14 14 (627200)
I0422 19:39:10.186673 1975033856 net.cpp:137] Memory required for data: 4720580804
I0422 19:39:10.186693 1975033856 layer_factory.hpp:77] Creating layer inception_4d/5x5
I0422 19:39:10.186703 1975033856 net.cpp:84] Creating Layer inception_4d/5x5
I0422 19:39:10.186708 1975033856 net.cpp:406] inception_4d/5x5 <- inception_4d/5x5_reduce
I0422 19:39:10.186720 1975033856 net.cpp:380] inception_4d/5x5 -> inception_4d/5x5
I0422 19:39:10.187074 1975033856 net.cpp:122] Setting up inception_4d/5x5
I0422 19:39:10.187079 1975033856 net.cpp:129] Top shape: 100 64 14 14 (1254400)
I0422 19:39:10.187094 1975033856 net.cpp:137] Memory required for data: 4725598404
I0422 19:39:10.187099 1975033856 layer_factory.hpp:77] Creating layer inception_4d/relu_5x5
I0422 19:39:10.187104 1975033856 net.cpp:84] Creating Layer inception_4d/relu_5x5
I0422 19:39:10.187108 1975033856 net.cpp:406] inception_4d/relu_5x5 <- inception_4d/5x5
I0422 19:39:10.187129 1975033856 net.cpp:367] inception_4d/relu_5x5 -> inception_4d/5x5 (in-place)
I0422 19:39:10.187135 1975033856 net.cpp:122] Setting up inception_4d/relu_5x5
I0422 19:39:10.187139 1975033856 net.cpp:129] Top shape: 100 64 14 14 (1254400)
I0422 19:39:10.187142 1975033856 net.cpp:137] Memory required for data: 4730616004
I0422 19:39:10.187146 1975033856 layer_factory.hpp:77] Creating layer inception_4d/pool
I0422 19:39:10.187151 1975033856 net.cpp:84] Creating Layer inception_4d/pool
I0422 19:39:10.187155 1975033856 net.cpp:406] inception_4d/pool <- inception_4c/output_inception_4c/output_0_split_3
I0422 19:39:10.187160 1975033856 net.cpp:380] inception_4d/pool -> inception_4d/pool
I0422 19:39:10.187170 1975033856 net.cpp:122] Setting up inception_4d/pool
I0422 19:39:10.187175 1975033856 net.cpp:129] Top shape: 100 512 14 14 (10035200)
I0422 19:39:10.187180 1975033856 net.cpp:137] Memory required for data: 4770756804
I0422 19:39:10.187183 1975033856 layer_factory.hpp:77] Creating layer inception_4d/pool_proj
I0422 19:39:10.187214 1975033856 net.cpp:84] Creating Layer inception_4d/pool_proj
I0422 19:39:10.187218 1975033856 net.cpp:406] inception_4d/pool_proj <- inception_4d/pool
I0422 19:39:10.187223 1975033856 net.cpp:380] inception_4d/pool_proj -> inception_4d/pool_proj
I0422 19:39:10.187497 1975033856 net.cpp:122] Setting up inception_4d/pool_proj
I0422 19:39:10.187502 1975033856 net.cpp:129] Top shape: 100 64 14 14 (1254400)
I0422 19:39:10.187516 1975033856 net.cpp:137] Memory required for data: 4775774404
I0422 19:39:10.187521 1975033856 layer_factory.hpp:77] Creating layer inception_4d/relu_pool_proj
I0422 19:39:10.187526 1975033856 net.cpp:84] Creating Layer inception_4d/relu_pool_proj
I0422 19:39:10.187530 1975033856 net.cpp:406] inception_4d/relu_pool_proj <- inception_4d/pool_proj
I0422 19:39:10.187535 1975033856 net.cpp:367] inception_4d/relu_pool_proj -> inception_4d/pool_proj (in-place)
I0422 19:39:10.187539 1975033856 net.cpp:122] Setting up inception_4d/relu_pool_proj
I0422 19:39:10.187543 1975033856 net.cpp:129] Top shape: 100 64 14 14 (1254400)
I0422 19:39:10.187547 1975033856 net.cpp:137] Memory required for data: 4780792004
I0422 19:39:10.187551 1975033856 layer_factory.hpp:77] Creating layer inception_4d/output
I0422 19:39:10.187556 1975033856 net.cpp:84] Creating Layer inception_4d/output
I0422 19:39:10.187558 1975033856 net.cpp:406] inception_4d/output <- inception_4d/1x1
I0422 19:39:10.187562 1975033856 net.cpp:406] inception_4d/output <- inception_4d/3x3
I0422 19:39:10.187566 1975033856 net.cpp:406] inception_4d/output <- inception_4d/5x5
I0422 19:39:10.187571 1975033856 net.cpp:406] inception_4d/output <- inception_4d/pool_proj
I0422 19:39:10.187574 1975033856 net.cpp:380] inception_4d/output -> inception_4d/output
I0422 19:39:10.187579 1975033856 net.cpp:122] Setting up inception_4d/output
I0422 19:39:10.187583 1975033856 net.cpp:129] Top shape: 100 528 14 14 (10348800)
I0422 19:39:10.187587 1975033856 net.cpp:137] Memory required for data: 4822187204
I0422 19:39:10.187590 1975033856 layer_factory.hpp:77] Creating layer inception_4d/output_inception_4d/output_0_split
I0422 19:39:10.187597 1975033856 net.cpp:84] Creating Layer inception_4d/output_inception_4d/output_0_split
I0422 19:39:10.187599 1975033856 net.cpp:406] inception_4d/output_inception_4d/output_0_split <- inception_4d/output
I0422 19:39:10.187604 1975033856 net.cpp:380] inception_4d/output_inception_4d/output_0_split -> inception_4d/output_inception_4d/output_0_split_0
I0422 19:39:10.187610 1975033856 net.cpp:380] inception_4d/output_inception_4d/output_0_split -> inception_4d/output_inception_4d/output_0_split_1
I0422 19:39:10.187616 1975033856 net.cpp:380] inception_4d/output_inception_4d/output_0_split -> inception_4d/output_inception_4d/output_0_split_2
I0422 19:39:10.187621 1975033856 net.cpp:380] inception_4d/output_inception_4d/output_0_split -> inception_4d/output_inception_4d/output_0_split_3
I0422 19:39:10.187628 1975033856 net.cpp:380] inception_4d/output_inception_4d/output_0_split -> inception_4d/output_inception_4d/output_0_split_4
I0422 19:39:10.187644 1975033856 net.cpp:122] Setting up inception_4d/output_inception_4d/output_0_split
I0422 19:39:10.187649 1975033856 net.cpp:129] Top shape: 100 528 14 14 (10348800)
I0422 19:39:10.187657 1975033856 net.cpp:129] Top shape: 100 528 14 14 (10348800)
I0422 19:39:10.187661 1975033856 net.cpp:129] Top shape: 100 528 14 14 (10348800)
I0422 19:39:10.187665 1975033856 net.cpp:129] Top shape: 100 528 14 14 (10348800)
I0422 19:39:10.187669 1975033856 net.cpp:129] Top shape: 100 528 14 14 (10348800)
I0422 19:39:10.187674 1975033856 net.cpp:137] Memory required for data: 5029163204
I0422 19:39:10.187677 1975033856 layer_factory.hpp:77] Creating layer loss2/ave_pool
I0422 19:39:10.187682 1975033856 net.cpp:84] Creating Layer loss2/ave_pool
I0422 19:39:10.187686 1975033856 net.cpp:406] loss2/ave_pool <- inception_4d/output_inception_4d/output_0_split_0
I0422 19:39:10.187690 1975033856 net.cpp:380] loss2/ave_pool -> loss2/ave_pool
I0422 19:39:10.187696 1975033856 net.cpp:122] Setting up loss2/ave_pool
I0422 19:39:10.187700 1975033856 net.cpp:129] Top shape: 100 528 4 4 (844800)
I0422 19:39:10.187703 1975033856 net.cpp:137] Memory required for data: 5032542404
I0422 19:39:10.187707 1975033856 layer_factory.hpp:77] Creating layer loss2/conv
I0422 19:39:10.187712 1975033856 net.cpp:84] Creating Layer loss2/conv
I0422 19:39:10.187716 1975033856 net.cpp:406] loss2/conv <- loss2/ave_pool
I0422 19:39:10.187721 1975033856 net.cpp:380] loss2/conv -> loss2/conv
I0422 19:39:10.188262 1975033856 net.cpp:122] Setting up loss2/conv
I0422 19:39:10.188267 1975033856 net.cpp:129] Top shape: 100 128 4 4 (204800)
I0422 19:39:10.188282 1975033856 net.cpp:137] Memory required for data: 5033361604
I0422 19:39:10.188287 1975033856 layer_factory.hpp:77] Creating layer loss2/relu_conv
I0422 19:39:10.188292 1975033856 net.cpp:84] Creating Layer loss2/relu_conv
I0422 19:39:10.188295 1975033856 net.cpp:406] loss2/relu_conv <- loss2/conv
I0422 19:39:10.188299 1975033856 net.cpp:367] loss2/relu_conv -> loss2/conv (in-place)
I0422 19:39:10.188304 1975033856 net.cpp:122] Setting up loss2/relu_conv
I0422 19:39:10.188308 1975033856 net.cpp:129] Top shape: 100 128 4 4 (204800)
I0422 19:39:10.188313 1975033856 net.cpp:137] Memory required for data: 5034180804
I0422 19:39:10.188315 1975033856 layer_factory.hpp:77] Creating layer loss2/fc
I0422 19:39:10.188321 1975033856 net.cpp:84] Creating Layer loss2/fc
I0422 19:39:10.188324 1975033856 net.cpp:406] loss2/fc <- loss2/conv
I0422 19:39:10.188329 1975033856 net.cpp:380] loss2/fc -> loss2/fc
I0422 19:39:10.204946 1975033856 net.cpp:122] Setting up loss2/fc
I0422 19:39:10.204967 1975033856 net.cpp:129] Top shape: 100 1024 (102400)
I0422 19:39:10.204982 1975033856 net.cpp:137] Memory required for data: 5034590404
I0422 19:39:10.205051 1975033856 layer_factory.hpp:77] Creating layer loss2/relu_fc
I0422 19:39:10.205065 1975033856 net.cpp:84] Creating Layer loss2/relu_fc
I0422 19:39:10.205071 1975033856 net.cpp:406] loss2/relu_fc <- loss2/fc
I0422 19:39:10.205077 1975033856 net.cpp:367] loss2/relu_fc -> loss2/fc (in-place)
I0422 19:39:10.205086 1975033856 net.cpp:122] Setting up loss2/relu_fc
I0422 19:39:10.205090 1975033856 net.cpp:129] Top shape: 100 1024 (102400)
I0422 19:39:10.205094 1975033856 net.cpp:137] Memory required for data: 5035000004
I0422 19:39:10.205098 1975033856 layer_factory.hpp:77] Creating layer loss2/drop_fc
I0422 19:39:10.205106 1975033856 net.cpp:84] Creating Layer loss2/drop_fc
I0422 19:39:10.205109 1975033856 net.cpp:406] loss2/drop_fc <- loss2/fc
I0422 19:39:10.205113 1975033856 net.cpp:367] loss2/drop_fc -> loss2/fc (in-place)
I0422 19:39:10.205119 1975033856 net.cpp:122] Setting up loss2/drop_fc
I0422 19:39:10.205122 1975033856 net.cpp:129] Top shape: 100 1024 (102400)
I0422 19:39:10.205127 1975033856 net.cpp:137] Memory required for data: 5035409604
I0422 19:39:10.205134 1975033856 layer_factory.hpp:77] Creating layer loss2/classifier
I0422 19:39:10.205149 1975033856 net.cpp:84] Creating Layer loss2/classifier
I0422 19:39:10.205152 1975033856 net.cpp:406] loss2/classifier <- loss2/fc
I0422 19:39:10.205186 1975033856 net.cpp:380] loss2/classifier -> loss2/classifier
I0422 19:39:10.213517 1975033856 net.cpp:122] Setting up loss2/classifier
I0422 19:39:10.213534 1975033856 net.cpp:129] Top shape: 100 1000 (100000)
I0422 19:39:10.213551 1975033856 net.cpp:137] Memory required for data: 5035809604
I0422 19:39:10.213563 1975033856 layer_factory.hpp:77] Creating layer loss2/loss
I0422 19:39:10.213580 1975033856 net.cpp:84] Creating Layer loss2/loss
I0422 19:39:10.213587 1975033856 net.cpp:406] loss2/loss <- loss2/classifier
I0422 19:39:10.213593 1975033856 net.cpp:406] loss2/loss <- label_data_1_split_1
I0422 19:39:10.213598 1975033856 net.cpp:380] loss2/loss -> loss2/loss1
I0422 19:39:10.213605 1975033856 layer_factory.hpp:77] Creating layer loss2/loss
I0422 19:39:10.213852 1975033856 net.cpp:122] Setting up loss2/loss
I0422 19:39:10.213858 1975033856 net.cpp:129] Top shape: (1)
I0422 19:39:10.213873 1975033856 net.cpp:132]     with loss weight 0.3
I0422 19:39:10.213881 1975033856 net.cpp:137] Memory required for data: 5035809608
I0422 19:39:10.213884 1975033856 layer_factory.hpp:77] Creating layer inception_4e/1x1
I0422 19:39:10.213892 1975033856 net.cpp:84] Creating Layer inception_4e/1x1
I0422 19:39:10.213897 1975033856 net.cpp:406] inception_4e/1x1 <- inception_4d/output_inception_4d/output_0_split_1
I0422 19:39:10.213904 1975033856 net.cpp:380] inception_4e/1x1 -> inception_4e/1x1
I0422 19:39:10.215057 1975033856 net.cpp:122] Setting up inception_4e/1x1
I0422 19:39:10.215065 1975033856 net.cpp:129] Top shape: 100 256 14 14 (5017600)
I0422 19:39:10.215070 1975033856 net.cpp:137] Memory required for data: 5055880008
I0422 19:39:10.215075 1975033856 layer_factory.hpp:77] Creating layer inception_4e/relu_1x1
I0422 19:39:10.215081 1975033856 net.cpp:84] Creating Layer inception_4e/relu_1x1
I0422 19:39:10.215086 1975033856 net.cpp:406] inception_4e/relu_1x1 <- inception_4e/1x1
I0422 19:39:10.215091 1975033856 net.cpp:367] inception_4e/relu_1x1 -> inception_4e/1x1 (in-place)
I0422 19:39:10.215097 1975033856 net.cpp:122] Setting up inception_4e/relu_1x1
I0422 19:39:10.215101 1975033856 net.cpp:129] Top shape: 100 256 14 14 (5017600)
I0422 19:39:10.215106 1975033856 net.cpp:137] Memory required for data: 5075950408
I0422 19:39:10.215109 1975033856 layer_factory.hpp:77] Creating layer inception_4e/3x3_reduce
I0422 19:39:10.215116 1975033856 net.cpp:84] Creating Layer inception_4e/3x3_reduce
I0422 19:39:10.215119 1975033856 net.cpp:406] inception_4e/3x3_reduce <- inception_4d/output_inception_4d/output_0_split_2
I0422 19:39:10.215150 1975033856 net.cpp:380] inception_4e/3x3_reduce -> inception_4e/3x3_reduce
I0422 19:39:10.216002 1975033856 net.cpp:122] Setting up inception_4e/3x3_reduce
I0422 19:39:10.216012 1975033856 net.cpp:129] Top shape: 100 160 14 14 (3136000)
I0422 19:39:10.216018 1975033856 net.cpp:137] Memory required for data: 5088494408
I0422 19:39:10.216023 1975033856 layer_factory.hpp:77] Creating layer inception_4e/relu_3x3_reduce
I0422 19:39:10.216034 1975033856 net.cpp:84] Creating Layer inception_4e/relu_3x3_reduce
I0422 19:39:10.216039 1975033856 net.cpp:406] inception_4e/relu_3x3_reduce <- inception_4e/3x3_reduce
I0422 19:39:10.216044 1975033856 net.cpp:367] inception_4e/relu_3x3_reduce -> inception_4e/3x3_reduce (in-place)
I0422 19:39:10.216050 1975033856 net.cpp:122] Setting up inception_4e/relu_3x3_reduce
I0422 19:39:10.216074 1975033856 net.cpp:129] Top shape: 100 160 14 14 (3136000)
I0422 19:39:10.216083 1975033856 net.cpp:137] Memory required for data: 5101038408
I0422 19:39:10.216099 1975033856 layer_factory.hpp:77] Creating layer inception_4e/3x3
I0422 19:39:10.216116 1975033856 net.cpp:84] Creating Layer inception_4e/3x3
I0422 19:39:10.216122 1975033856 net.cpp:406] inception_4e/3x3 <- inception_4e/3x3_reduce
I0422 19:39:10.216128 1975033856 net.cpp:380] inception_4e/3x3 -> inception_4e/3x3
I0422 19:39:10.219841 1975033856 net.cpp:122] Setting up inception_4e/3x3
I0422 19:39:10.219851 1975033856 net.cpp:129] Top shape: 100 320 14 14 (6272000)
I0422 19:39:10.219867 1975033856 net.cpp:137] Memory required for data: 5126126408
I0422 19:39:10.219894 1975033856 layer_factory.hpp:77] Creating layer inception_4e/relu_3x3
I0422 19:39:10.219902 1975033856 net.cpp:84] Creating Layer inception_4e/relu_3x3
I0422 19:39:10.219905 1975033856 net.cpp:406] inception_4e/relu_3x3 <- inception_4e/3x3
I0422 19:39:10.219910 1975033856 net.cpp:367] inception_4e/relu_3x3 -> inception_4e/3x3 (in-place)
I0422 19:39:10.219918 1975033856 net.cpp:122] Setting up inception_4e/relu_3x3
I0422 19:39:10.219921 1975033856 net.cpp:129] Top shape: 100 320 14 14 (6272000)
I0422 19:39:10.219926 1975033856 net.cpp:137] Memory required for data: 5151214408
I0422 19:39:10.219929 1975033856 layer_factory.hpp:77] Creating layer inception_4e/5x5_reduce
I0422 19:39:10.219936 1975033856 net.cpp:84] Creating Layer inception_4e/5x5_reduce
I0422 19:39:10.219940 1975033856 net.cpp:406] inception_4e/5x5_reduce <- inception_4d/output_inception_4d/output_0_split_3
I0422 19:39:10.219946 1975033856 net.cpp:380] inception_4e/5x5_reduce -> inception_4e/5x5_reduce
I0422 19:39:10.220077 1975033856 net.cpp:122] Setting up inception_4e/5x5_reduce
I0422 19:39:10.220082 1975033856 net.cpp:129] Top shape: 100 32 14 14 (627200)
I0422 19:39:10.220087 1975033856 net.cpp:137] Memory required for data: 5153723208
I0422 19:39:10.220091 1975033856 layer_factory.hpp:77] Creating layer inception_4e/relu_5x5_reduce
I0422 19:39:10.220096 1975033856 net.cpp:84] Creating Layer inception_4e/relu_5x5_reduce
I0422 19:39:10.220105 1975033856 net.cpp:406] inception_4e/relu_5x5_reduce <- inception_4e/5x5_reduce
I0422 19:39:10.220110 1975033856 net.cpp:367] inception_4e/relu_5x5_reduce -> inception_4e/5x5_reduce (in-place)
I0422 19:39:10.220116 1975033856 net.cpp:122] Setting up inception_4e/relu_5x5_reduce
I0422 19:39:10.220119 1975033856 net.cpp:129] Top shape: 100 32 14 14 (627200)
I0422 19:39:10.220124 1975033856 net.cpp:137] Memory required for data: 5156232008
I0422 19:39:10.220127 1975033856 layer_factory.hpp:77] Creating layer inception_4e/5x5
I0422 19:39:10.220147 1975033856 net.cpp:84] Creating Layer inception_4e/5x5
I0422 19:39:10.220152 1975033856 net.cpp:406] inception_4e/5x5 <- inception_4e/5x5_reduce
I0422 19:39:10.220156 1975033856 net.cpp:380] inception_4e/5x5 -> inception_4e/5x5
I0422 19:39:10.220975 1975033856 net.cpp:122] Setting up inception_4e/5x5
I0422 19:39:10.220983 1975033856 net.cpp:129] Top shape: 100 128 14 14 (2508800)
I0422 19:39:10.220998 1975033856 net.cpp:137] Memory required for data: 5166267208
I0422 19:39:10.221002 1975033856 layer_factory.hpp:77] Creating layer inception_4e/relu_5x5
I0422 19:39:10.221007 1975033856 net.cpp:84] Creating Layer inception_4e/relu_5x5
I0422 19:39:10.221010 1975033856 net.cpp:406] inception_4e/relu_5x5 <- inception_4e/5x5
I0422 19:39:10.221015 1975033856 net.cpp:367] inception_4e/relu_5x5 -> inception_4e/5x5 (in-place)
I0422 19:39:10.221019 1975033856 net.cpp:122] Setting up inception_4e/relu_5x5
I0422 19:39:10.221024 1975033856 net.cpp:129] Top shape: 100 128 14 14 (2508800)
I0422 19:39:10.221030 1975033856 net.cpp:137] Memory required for data: 5176302408
I0422 19:39:10.221034 1975033856 layer_factory.hpp:77] Creating layer inception_4e/pool
I0422 19:39:10.221040 1975033856 net.cpp:84] Creating Layer inception_4e/pool
I0422 19:39:10.221042 1975033856 net.cpp:406] inception_4e/pool <- inception_4d/output_inception_4d/output_0_split_4
I0422 19:39:10.221047 1975033856 net.cpp:380] inception_4e/pool -> inception_4e/pool
I0422 19:39:10.221055 1975033856 net.cpp:122] Setting up inception_4e/pool
I0422 19:39:10.221058 1975033856 net.cpp:129] Top shape: 100 528 14 14 (10348800)
I0422 19:39:10.221066 1975033856 net.cpp:137] Memory required for data: 5217697608
I0422 19:39:10.221072 1975033856 layer_factory.hpp:77] Creating layer inception_4e/pool_proj
I0422 19:39:10.221082 1975033856 net.cpp:84] Creating Layer inception_4e/pool_proj
I0422 19:39:10.221086 1975033856 net.cpp:406] inception_4e/pool_proj <- inception_4e/pool
I0422 19:39:10.221091 1975033856 net.cpp:380] inception_4e/pool_proj -> inception_4e/pool_proj
I0422 19:39:10.221704 1975033856 net.cpp:122] Setting up inception_4e/pool_proj
I0422 19:39:10.221714 1975033856 net.cpp:129] Top shape: 100 128 14 14 (2508800)
I0422 19:39:10.221730 1975033856 net.cpp:137] Memory required for data: 5227732808
I0422 19:39:10.221736 1975033856 layer_factory.hpp:77] Creating layer inception_4e/relu_pool_proj
I0422 19:39:10.221741 1975033856 net.cpp:84] Creating Layer inception_4e/relu_pool_proj
I0422 19:39:10.221746 1975033856 net.cpp:406] inception_4e/relu_pool_proj <- inception_4e/pool_proj
I0422 19:39:10.221750 1975033856 net.cpp:367] inception_4e/relu_pool_proj -> inception_4e/pool_proj (in-place)
I0422 19:39:10.221756 1975033856 net.cpp:122] Setting up inception_4e/relu_pool_proj
I0422 19:39:10.221760 1975033856 net.cpp:129] Top shape: 100 128 14 14 (2508800)
I0422 19:39:10.221765 1975033856 net.cpp:137] Memory required for data: 5237768008
I0422 19:39:10.221767 1975033856 layer_factory.hpp:77] Creating layer inception_4e/output
I0422 19:39:10.221773 1975033856 net.cpp:84] Creating Layer inception_4e/output
I0422 19:39:10.221777 1975033856 net.cpp:406] inception_4e/output <- inception_4e/1x1
I0422 19:39:10.221782 1975033856 net.cpp:406] inception_4e/output <- inception_4e/3x3
I0422 19:39:10.221787 1975033856 net.cpp:406] inception_4e/output <- inception_4e/5x5
I0422 19:39:10.221791 1975033856 net.cpp:406] inception_4e/output <- inception_4e/pool_proj
I0422 19:39:10.221796 1975033856 net.cpp:380] inception_4e/output -> inception_4e/output
I0422 19:39:10.221802 1975033856 net.cpp:122] Setting up inception_4e/output
I0422 19:39:10.221807 1975033856 net.cpp:129] Top shape: 100 832 14 14 (16307200)
I0422 19:39:10.221812 1975033856 net.cpp:137] Memory required for data: 5302996808
I0422 19:39:10.221848 1975033856 layer_factory.hpp:77] Creating layer pool4/3x3_s2
I0422 19:39:10.221868 1975033856 net.cpp:84] Creating Layer pool4/3x3_s2
I0422 19:39:10.221873 1975033856 net.cpp:406] pool4/3x3_s2 <- inception_4e/output
I0422 19:39:10.221880 1975033856 net.cpp:380] pool4/3x3_s2 -> pool4/3x3_s2
I0422 19:39:10.221896 1975033856 net.cpp:122] Setting up pool4/3x3_s2
I0422 19:39:10.221904 1975033856 net.cpp:129] Top shape: 100 832 7 7 (4076800)
I0422 19:39:10.221909 1975033856 net.cpp:137] Memory required for data: 5319304008
I0422 19:39:10.221913 1975033856 layer_factory.hpp:77] Creating layer pool4/3x3_s2_pool4/3x3_s2_0_split
I0422 19:39:10.221920 1975033856 net.cpp:84] Creating Layer pool4/3x3_s2_pool4/3x3_s2_0_split
I0422 19:39:10.221925 1975033856 net.cpp:406] pool4/3x3_s2_pool4/3x3_s2_0_split <- pool4/3x3_s2
I0422 19:39:10.221931 1975033856 net.cpp:380] pool4/3x3_s2_pool4/3x3_s2_0_split -> pool4/3x3_s2_pool4/3x3_s2_0_split_0
I0422 19:39:10.221937 1975033856 net.cpp:380] pool4/3x3_s2_pool4/3x3_s2_0_split -> pool4/3x3_s2_pool4/3x3_s2_0_split_1
I0422 19:39:10.221946 1975033856 net.cpp:380] pool4/3x3_s2_pool4/3x3_s2_0_split -> pool4/3x3_s2_pool4/3x3_s2_0_split_2
I0422 19:39:10.221951 1975033856 net.cpp:380] pool4/3x3_s2_pool4/3x3_s2_0_split -> pool4/3x3_s2_pool4/3x3_s2_0_split_3
I0422 19:39:10.221957 1975033856 net.cpp:122] Setting up pool4/3x3_s2_pool4/3x3_s2_0_split
I0422 19:39:10.221961 1975033856 net.cpp:129] Top shape: 100 832 7 7 (4076800)
I0422 19:39:10.221966 1975033856 net.cpp:129] Top shape: 100 832 7 7 (4076800)
I0422 19:39:10.221969 1975033856 net.cpp:129] Top shape: 100 832 7 7 (4076800)
I0422 19:39:10.221973 1975033856 net.cpp:129] Top shape: 100 832 7 7 (4076800)
I0422 19:39:10.221977 1975033856 net.cpp:137] Memory required for data: 5384532808
I0422 19:39:10.221981 1975033856 layer_factory.hpp:77] Creating layer inception_5a/1x1
I0422 19:39:10.221990 1975033856 net.cpp:84] Creating Layer inception_5a/1x1
I0422 19:39:10.221994 1975033856 net.cpp:406] inception_5a/1x1 <- pool4/3x3_s2_pool4/3x3_s2_0_split_0
I0422 19:39:10.221999 1975033856 net.cpp:380] inception_5a/1x1 -> inception_5a/1x1
I0422 19:39:10.223734 1975033856 net.cpp:122] Setting up inception_5a/1x1
I0422 19:39:10.223742 1975033856 net.cpp:129] Top shape: 100 256 7 7 (1254400)
I0422 19:39:10.223757 1975033856 net.cpp:137] Memory required for data: 5389550408
I0422 19:39:10.223776 1975033856 layer_factory.hpp:77] Creating layer inception_5a/relu_1x1
I0422 19:39:10.223783 1975033856 net.cpp:84] Creating Layer inception_5a/relu_1x1
I0422 19:39:10.223786 1975033856 net.cpp:406] inception_5a/relu_1x1 <- inception_5a/1x1
I0422 19:39:10.223790 1975033856 net.cpp:367] inception_5a/relu_1x1 -> inception_5a/1x1 (in-place)
I0422 19:39:10.223796 1975033856 net.cpp:122] Setting up inception_5a/relu_1x1
I0422 19:39:10.223799 1975033856 net.cpp:129] Top shape: 100 256 7 7 (1254400)
I0422 19:39:10.223804 1975033856 net.cpp:137] Memory required for data: 5394568008
I0422 19:39:10.223808 1975033856 layer_factory.hpp:77] Creating layer inception_5a/3x3_reduce
I0422 19:39:10.223814 1975033856 net.cpp:84] Creating Layer inception_5a/3x3_reduce
I0422 19:39:10.223819 1975033856 net.cpp:406] inception_5a/3x3_reduce <- pool4/3x3_s2_pool4/3x3_s2_0_split_1
I0422 19:39:10.223824 1975033856 net.cpp:380] inception_5a/3x3_reduce -> inception_5a/3x3_reduce
I0422 19:39:10.224887 1975033856 net.cpp:122] Setting up inception_5a/3x3_reduce
I0422 19:39:10.224898 1975033856 net.cpp:129] Top shape: 100 160 7 7 (784000)
I0422 19:39:10.224913 1975033856 net.cpp:137] Memory required for data: 5397704008
I0422 19:39:10.224918 1975033856 layer_factory.hpp:77] Creating layer inception_5a/relu_3x3_reduce
I0422 19:39:10.224925 1975033856 net.cpp:84] Creating Layer inception_5a/relu_3x3_reduce
I0422 19:39:10.224931 1975033856 net.cpp:406] inception_5a/relu_3x3_reduce <- inception_5a/3x3_reduce
I0422 19:39:10.224938 1975033856 net.cpp:367] inception_5a/relu_3x3_reduce -> inception_5a/3x3_reduce (in-place)
I0422 19:39:10.224944 1975033856 net.cpp:122] Setting up inception_5a/relu_3x3_reduce
I0422 19:39:10.224947 1975033856 net.cpp:129] Top shape: 100 160 7 7 (784000)
I0422 19:39:10.224952 1975033856 net.cpp:137] Memory required for data: 5400840008
I0422 19:39:10.224956 1975033856 layer_factory.hpp:77] Creating layer inception_5a/3x3
I0422 19:39:10.224963 1975033856 net.cpp:84] Creating Layer inception_5a/3x3
I0422 19:39:10.224967 1975033856 net.cpp:406] inception_5a/3x3 <- inception_5a/3x3_reduce
I0422 19:39:10.224972 1975033856 net.cpp:380] inception_5a/3x3 -> inception_5a/3x3
I0422 19:39:10.228734 1975033856 net.cpp:122] Setting up inception_5a/3x3
I0422 19:39:10.228749 1975033856 net.cpp:129] Top shape: 100 320 7 7 (1568000)
I0422 19:39:10.228754 1975033856 net.cpp:137] Memory required for data: 5407112008
I0422 19:39:10.228759 1975033856 layer_factory.hpp:77] Creating layer inception_5a/relu_3x3
I0422 19:39:10.228765 1975033856 net.cpp:84] Creating Layer inception_5a/relu_3x3
I0422 19:39:10.228770 1975033856 net.cpp:406] inception_5a/relu_3x3 <- inception_5a/3x3
I0422 19:39:10.228777 1975033856 net.cpp:367] inception_5a/relu_3x3 -> inception_5a/3x3 (in-place)
I0422 19:39:10.228783 1975033856 net.cpp:122] Setting up inception_5a/relu_3x3
I0422 19:39:10.228787 1975033856 net.cpp:129] Top shape: 100 320 7 7 (1568000)
I0422 19:39:10.228791 1975033856 net.cpp:137] Memory required for data: 5413384008
I0422 19:39:10.228796 1975033856 layer_factory.hpp:77] Creating layer inception_5a/5x5_reduce
I0422 19:39:10.228806 1975033856 net.cpp:84] Creating Layer inception_5a/5x5_reduce
I0422 19:39:10.228812 1975033856 net.cpp:406] inception_5a/5x5_reduce <- pool4/3x3_s2_pool4/3x3_s2_0_split_2
I0422 19:39:10.228818 1975033856 net.cpp:380] inception_5a/5x5_reduce -> inception_5a/5x5_reduce
I0422 19:39:10.229125 1975033856 net.cpp:122] Setting up inception_5a/5x5_reduce
I0422 19:39:10.229136 1975033856 net.cpp:129] Top shape: 100 32 7 7 (156800)
I0422 19:39:10.229146 1975033856 net.cpp:137] Memory required for data: 5414011208
I0422 19:39:10.229156 1975033856 layer_factory.hpp:77] Creating layer inception_5a/relu_5x5_reduce
I0422 19:39:10.229182 1975033856 net.cpp:84] Creating Layer inception_5a/relu_5x5_reduce
I0422 19:39:10.229193 1975033856 net.cpp:406] inception_5a/relu_5x5_reduce <- inception_5a/5x5_reduce
I0422 19:39:10.229200 1975033856 net.cpp:367] inception_5a/relu_5x5_reduce -> inception_5a/5x5_reduce (in-place)
I0422 19:39:10.229233 1975033856 net.cpp:122] Setting up inception_5a/relu_5x5_reduce
I0422 19:39:10.229239 1975033856 net.cpp:129] Top shape: 100 32 7 7 (156800)
I0422 19:39:10.229249 1975033856 net.cpp:137] Memory required for data: 5414638408
I0422 19:39:10.229252 1975033856 layer_factory.hpp:77] Creating layer inception_5a/5x5
I0422 19:39:10.229259 1975033856 net.cpp:84] Creating Layer inception_5a/5x5
I0422 19:39:10.229264 1975033856 net.cpp:406] inception_5a/5x5 <- inception_5a/5x5_reduce
I0422 19:39:10.229269 1975033856 net.cpp:380] inception_5a/5x5 -> inception_5a/5x5
I0422 19:39:10.230103 1975033856 net.cpp:122] Setting up inception_5a/5x5
I0422 19:39:10.230108 1975033856 net.cpp:129] Top shape: 100 128 7 7 (627200)
I0422 19:39:10.230113 1975033856 net.cpp:137] Memory required for data: 5417147208
I0422 19:39:10.230118 1975033856 layer_factory.hpp:77] Creating layer inception_5a/relu_5x5
I0422 19:39:10.230124 1975033856 net.cpp:84] Creating Layer inception_5a/relu_5x5
I0422 19:39:10.230129 1975033856 net.cpp:406] inception_5a/relu_5x5 <- inception_5a/5x5
I0422 19:39:10.230132 1975033856 net.cpp:367] inception_5a/relu_5x5 -> inception_5a/5x5 (in-place)
I0422 19:39:10.230137 1975033856 net.cpp:122] Setting up inception_5a/relu_5x5
I0422 19:39:10.230140 1975033856 net.cpp:129] Top shape: 100 128 7 7 (627200)
I0422 19:39:10.230145 1975033856 net.cpp:137] Memory required for data: 5419656008
I0422 19:39:10.230151 1975033856 layer_factory.hpp:77] Creating layer inception_5a/pool
I0422 19:39:10.230156 1975033856 net.cpp:84] Creating Layer inception_5a/pool
I0422 19:39:10.230160 1975033856 net.cpp:406] inception_5a/pool <- pool4/3x3_s2_pool4/3x3_s2_0_split_3
I0422 19:39:10.230167 1975033856 net.cpp:380] inception_5a/pool -> inception_5a/pool
I0422 19:39:10.230185 1975033856 net.cpp:122] Setting up inception_5a/pool
I0422 19:39:10.230190 1975033856 net.cpp:129] Top shape: 100 832 7 7 (4076800)
I0422 19:39:10.230197 1975033856 net.cpp:137] Memory required for data: 5435963208
I0422 19:39:10.230202 1975033856 layer_factory.hpp:77] Creating layer inception_5a/pool_proj
I0422 19:39:10.230209 1975033856 net.cpp:84] Creating Layer inception_5a/pool_proj
I0422 19:39:10.230214 1975033856 net.cpp:406] inception_5a/pool_proj <- inception_5a/pool
I0422 19:39:10.230219 1975033856 net.cpp:380] inception_5a/pool_proj -> inception_5a/pool_proj
I0422 19:39:10.231081 1975033856 net.cpp:122] Setting up inception_5a/pool_proj
I0422 19:39:10.231086 1975033856 net.cpp:129] Top shape: 100 128 7 7 (627200)
I0422 19:39:10.231091 1975033856 net.cpp:137] Memory required for data: 5438472008
I0422 19:39:10.231096 1975033856 layer_factory.hpp:77] Creating layer inception_5a/relu_pool_proj
I0422 19:39:10.231101 1975033856 net.cpp:84] Creating Layer inception_5a/relu_pool_proj
I0422 19:39:10.231104 1975033856 net.cpp:406] inception_5a/relu_pool_proj <- inception_5a/pool_proj
I0422 19:39:10.231108 1975033856 net.cpp:367] inception_5a/relu_pool_proj -> inception_5a/pool_proj (in-place)
I0422 19:39:10.231113 1975033856 net.cpp:122] Setting up inception_5a/relu_pool_proj
I0422 19:39:10.231117 1975033856 net.cpp:129] Top shape: 100 128 7 7 (627200)
I0422 19:39:10.231122 1975033856 net.cpp:137] Memory required for data: 5440980808
I0422 19:39:10.231124 1975033856 layer_factory.hpp:77] Creating layer inception_5a/output
I0422 19:39:10.231129 1975033856 net.cpp:84] Creating Layer inception_5a/output
I0422 19:39:10.231132 1975033856 net.cpp:406] inception_5a/output <- inception_5a/1x1
I0422 19:39:10.231137 1975033856 net.cpp:406] inception_5a/output <- inception_5a/3x3
I0422 19:39:10.231140 1975033856 net.cpp:406] inception_5a/output <- inception_5a/5x5
I0422 19:39:10.231144 1975033856 net.cpp:406] inception_5a/output <- inception_5a/pool_proj
I0422 19:39:10.231148 1975033856 net.cpp:380] inception_5a/output -> inception_5a/output
I0422 19:39:10.231154 1975033856 net.cpp:122] Setting up inception_5a/output
I0422 19:39:10.231158 1975033856 net.cpp:129] Top shape: 100 832 7 7 (4076800)
I0422 19:39:10.231163 1975033856 net.cpp:137] Memory required for data: 5457288008
I0422 19:39:10.231207 1975033856 layer_factory.hpp:77] Creating layer inception_5a/output_inception_5a/output_0_split
I0422 19:39:10.231220 1975033856 net.cpp:84] Creating Layer inception_5a/output_inception_5a/output_0_split
I0422 19:39:10.231245 1975033856 net.cpp:406] inception_5a/output_inception_5a/output_0_split <- inception_5a/output
I0422 19:39:10.231261 1975033856 net.cpp:380] inception_5a/output_inception_5a/output_0_split -> inception_5a/output_inception_5a/output_0_split_0
I0422 19:39:10.231271 1975033856 net.cpp:380] inception_5a/output_inception_5a/output_0_split -> inception_5a/output_inception_5a/output_0_split_1
I0422 19:39:10.231281 1975033856 net.cpp:380] inception_5a/output_inception_5a/output_0_split -> inception_5a/output_inception_5a/output_0_split_2
I0422 19:39:10.231290 1975033856 net.cpp:380] inception_5a/output_inception_5a/output_0_split -> inception_5a/output_inception_5a/output_0_split_3
I0422 19:39:10.231298 1975033856 net.cpp:122] Setting up inception_5a/output_inception_5a/output_0_split
I0422 19:39:10.231302 1975033856 net.cpp:129] Top shape: 100 832 7 7 (4076800)
I0422 19:39:10.231307 1975033856 net.cpp:129] Top shape: 100 832 7 7 (4076800)
I0422 19:39:10.231312 1975033856 net.cpp:129] Top shape: 100 832 7 7 (4076800)
I0422 19:39:10.231315 1975033856 net.cpp:129] Top shape: 100 832 7 7 (4076800)
I0422 19:39:10.231319 1975033856 net.cpp:137] Memory required for data: 5522516808
I0422 19:39:10.231338 1975033856 layer_factory.hpp:77] Creating layer inception_5b/1x1
I0422 19:39:10.231350 1975033856 net.cpp:84] Creating Layer inception_5b/1x1
I0422 19:39:10.231355 1975033856 net.cpp:406] inception_5b/1x1 <- inception_5a/output_inception_5a/output_0_split_0
I0422 19:39:10.231361 1975033856 net.cpp:380] inception_5b/1x1 -> inception_5b/1x1
I0422 19:39:10.233919 1975033856 net.cpp:122] Setting up inception_5b/1x1
I0422 19:39:10.233930 1975033856 net.cpp:129] Top shape: 100 384 7 7 (1881600)
I0422 19:39:10.233937 1975033856 net.cpp:137] Memory required for data: 5530043208
I0422 19:39:10.233942 1975033856 layer_factory.hpp:77] Creating layer inception_5b/relu_1x1
I0422 19:39:10.233947 1975033856 net.cpp:84] Creating Layer inception_5b/relu_1x1
I0422 19:39:10.233952 1975033856 net.cpp:406] inception_5b/relu_1x1 <- inception_5b/1x1
I0422 19:39:10.233956 1975033856 net.cpp:367] inception_5b/relu_1x1 -> inception_5b/1x1 (in-place)
I0422 19:39:10.233963 1975033856 net.cpp:122] Setting up inception_5b/relu_1x1
I0422 19:39:10.233965 1975033856 net.cpp:129] Top shape: 100 384 7 7 (1881600)
I0422 19:39:10.233970 1975033856 net.cpp:137] Memory required for data: 5537569608
I0422 19:39:10.233973 1975033856 layer_factory.hpp:77] Creating layer inception_5b/3x3_reduce
I0422 19:39:10.233980 1975033856 net.cpp:84] Creating Layer inception_5b/3x3_reduce
I0422 19:39:10.233984 1975033856 net.cpp:406] inception_5b/3x3_reduce <- inception_5a/output_inception_5a/output_0_split_1
I0422 19:39:10.233990 1975033856 net.cpp:380] inception_5b/3x3_reduce -> inception_5b/3x3_reduce
I0422 19:39:10.235283 1975033856 net.cpp:122] Setting up inception_5b/3x3_reduce
I0422 19:39:10.235291 1975033856 net.cpp:129] Top shape: 100 192 7 7 (940800)
I0422 19:39:10.235296 1975033856 net.cpp:137] Memory required for data: 5541332808
I0422 19:39:10.235301 1975033856 layer_factory.hpp:77] Creating layer inception_5b/relu_3x3_reduce
I0422 19:39:10.235306 1975033856 net.cpp:84] Creating Layer inception_5b/relu_3x3_reduce
I0422 19:39:10.235311 1975033856 net.cpp:406] inception_5b/relu_3x3_reduce <- inception_5b/3x3_reduce
I0422 19:39:10.235314 1975033856 net.cpp:367] inception_5b/relu_3x3_reduce -> inception_5b/3x3_reduce (in-place)
I0422 19:39:10.235321 1975033856 net.cpp:122] Setting up inception_5b/relu_3x3_reduce
I0422 19:39:10.235323 1975033856 net.cpp:129] Top shape: 100 192 7 7 (940800)
I0422 19:39:10.235327 1975033856 net.cpp:137] Memory required for data: 5545096008
I0422 19:39:10.235330 1975033856 layer_factory.hpp:77] Creating layer inception_5b/3x3
I0422 19:39:10.235337 1975033856 net.cpp:84] Creating Layer inception_5b/3x3
I0422 19:39:10.235360 1975033856 net.cpp:406] inception_5b/3x3 <- inception_5b/3x3_reduce
I0422 19:39:10.235366 1975033856 net.cpp:380] inception_5b/3x3 -> inception_5b/3x3
I0422 19:39:10.240694 1975033856 net.cpp:122] Setting up inception_5b/3x3
I0422 19:39:10.240711 1975033856 net.cpp:129] Top shape: 100 384 7 7 (1881600)
I0422 19:39:10.240716 1975033856 net.cpp:137] Memory required for data: 5552622408
I0422 19:39:10.240723 1975033856 layer_factory.hpp:77] Creating layer inception_5b/relu_3x3
I0422 19:39:10.240730 1975033856 net.cpp:84] Creating Layer inception_5b/relu_3x3
I0422 19:39:10.240734 1975033856 net.cpp:406] inception_5b/relu_3x3 <- inception_5b/3x3
I0422 19:39:10.240741 1975033856 net.cpp:367] inception_5b/relu_3x3 -> inception_5b/3x3 (in-place)
I0422 19:39:10.240746 1975033856 net.cpp:122] Setting up inception_5b/relu_3x3
I0422 19:39:10.240749 1975033856 net.cpp:129] Top shape: 100 384 7 7 (1881600)
I0422 19:39:10.240753 1975033856 net.cpp:137] Memory required for data: 5560148808
I0422 19:39:10.240756 1975033856 layer_factory.hpp:77] Creating layer inception_5b/5x5_reduce
I0422 19:39:10.240762 1975033856 net.cpp:84] Creating Layer inception_5b/5x5_reduce
I0422 19:39:10.240767 1975033856 net.cpp:406] inception_5b/5x5_reduce <- inception_5a/output_inception_5a/output_0_split_2
I0422 19:39:10.240772 1975033856 net.cpp:380] inception_5b/5x5_reduce -> inception_5b/5x5_reduce
I0422 19:39:10.241135 1975033856 net.cpp:122] Setting up inception_5b/5x5_reduce
I0422 19:39:10.241140 1975033856 net.cpp:129] Top shape: 100 48 7 7 (235200)
I0422 19:39:10.241145 1975033856 net.cpp:137] Memory required for data: 5561089608
I0422 19:39:10.241149 1975033856 layer_factory.hpp:77] Creating layer inception_5b/relu_5x5_reduce
I0422 19:39:10.241154 1975033856 net.cpp:84] Creating Layer inception_5b/relu_5x5_reduce
I0422 19:39:10.241158 1975033856 net.cpp:406] inception_5b/relu_5x5_reduce <- inception_5b/5x5_reduce
I0422 19:39:10.241163 1975033856 net.cpp:367] inception_5b/relu_5x5_reduce -> inception_5b/5x5_reduce (in-place)
I0422 19:39:10.241168 1975033856 net.cpp:122] Setting up inception_5b/relu_5x5_reduce
I0422 19:39:10.241194 1975033856 net.cpp:129] Top shape: 100 48 7 7 (235200)
I0422 19:39:10.241206 1975033856 net.cpp:137] Memory required for data: 5562030408
I0422 19:39:10.241211 1975033856 layer_factory.hpp:77] Creating layer inception_5b/5x5
I0422 19:39:10.241220 1975033856 net.cpp:84] Creating Layer inception_5b/5x5
I0422 19:39:10.241226 1975033856 net.cpp:406] inception_5b/5x5 <- inception_5b/5x5_reduce
I0422 19:39:10.241238 1975033856 net.cpp:380] inception_5b/5x5 -> inception_5b/5x5
I0422 19:39:10.242547 1975033856 net.cpp:122] Setting up inception_5b/5x5
I0422 19:39:10.242552 1975033856 net.cpp:129] Top shape: 100 128 7 7 (627200)
I0422 19:39:10.242558 1975033856 net.cpp:137] Memory required for data: 5564539208
I0422 19:39:10.242563 1975033856 layer_factory.hpp:77] Creating layer inception_5b/relu_5x5
I0422 19:39:10.242568 1975033856 net.cpp:84] Creating Layer inception_5b/relu_5x5
I0422 19:39:10.242571 1975033856 net.cpp:406] inception_5b/relu_5x5 <- inception_5b/5x5
I0422 19:39:10.242575 1975033856 net.cpp:367] inception_5b/relu_5x5 -> inception_5b/5x5 (in-place)
I0422 19:39:10.242581 1975033856 net.cpp:122] Setting up inception_5b/relu_5x5
I0422 19:39:10.242584 1975033856 net.cpp:129] Top shape: 100 128 7 7 (627200)
I0422 19:39:10.242588 1975033856 net.cpp:137] Memory required for data: 5567048008
I0422 19:39:10.242593 1975033856 layer_factory.hpp:77] Creating layer inception_5b/pool
I0422 19:39:10.242597 1975033856 net.cpp:84] Creating Layer inception_5b/pool
I0422 19:39:10.242602 1975033856 net.cpp:406] inception_5b/pool <- inception_5a/output_inception_5a/output_0_split_3
I0422 19:39:10.242606 1975033856 net.cpp:380] inception_5b/pool -> inception_5b/pool
I0422 19:39:10.242614 1975033856 net.cpp:122] Setting up inception_5b/pool
I0422 19:39:10.242617 1975033856 net.cpp:129] Top shape: 100 832 7 7 (4076800)
I0422 19:39:10.242621 1975033856 net.cpp:137] Memory required for data: 5583355208
I0422 19:39:10.242653 1975033856 layer_factory.hpp:77] Creating layer inception_5b/pool_proj
I0422 19:39:10.242661 1975033856 net.cpp:84] Creating Layer inception_5b/pool_proj
I0422 19:39:10.242666 1975033856 net.cpp:406] inception_5b/pool_proj <- inception_5b/pool
I0422 19:39:10.242671 1975033856 net.cpp:380] inception_5b/pool_proj -> inception_5b/pool_proj
I0422 19:39:10.243523 1975033856 net.cpp:122] Setting up inception_5b/pool_proj
I0422 19:39:10.243530 1975033856 net.cpp:129] Top shape: 100 128 7 7 (627200)
I0422 19:39:10.243533 1975033856 net.cpp:137] Memory required for data: 5585864008
I0422 19:39:10.243538 1975033856 layer_factory.hpp:77] Creating layer inception_5b/relu_pool_proj
I0422 19:39:10.243542 1975033856 net.cpp:84] Creating Layer inception_5b/relu_pool_proj
I0422 19:39:10.243546 1975033856 net.cpp:406] inception_5b/relu_pool_proj <- inception_5b/pool_proj
I0422 19:39:10.243551 1975033856 net.cpp:367] inception_5b/relu_pool_proj -> inception_5b/pool_proj (in-place)
I0422 19:39:10.243556 1975033856 net.cpp:122] Setting up inception_5b/relu_pool_proj
I0422 19:39:10.243559 1975033856 net.cpp:129] Top shape: 100 128 7 7 (627200)
I0422 19:39:10.243563 1975033856 net.cpp:137] Memory required for data: 5588372808
I0422 19:39:10.243566 1975033856 layer_factory.hpp:77] Creating layer inception_5b/output
I0422 19:39:10.243572 1975033856 net.cpp:84] Creating Layer inception_5b/output
I0422 19:39:10.243576 1975033856 net.cpp:406] inception_5b/output <- inception_5b/1x1
I0422 19:39:10.243580 1975033856 net.cpp:406] inception_5b/output <- inception_5b/3x3
I0422 19:39:10.243584 1975033856 net.cpp:406] inception_5b/output <- inception_5b/5x5
I0422 19:39:10.243588 1975033856 net.cpp:406] inception_5b/output <- inception_5b/pool_proj
I0422 19:39:10.243592 1975033856 net.cpp:380] inception_5b/output -> inception_5b/output
I0422 19:39:10.243599 1975033856 net.cpp:122] Setting up inception_5b/output
I0422 19:39:10.243602 1975033856 net.cpp:129] Top shape: 100 1024 7 7 (5017600)
I0422 19:39:10.243607 1975033856 net.cpp:137] Memory required for data: 5608443208
I0422 19:39:10.243609 1975033856 layer_factory.hpp:77] Creating layer pool5/7x7_s1
I0422 19:39:10.243614 1975033856 net.cpp:84] Creating Layer pool5/7x7_s1
I0422 19:39:10.243618 1975033856 net.cpp:406] pool5/7x7_s1 <- inception_5b/output
I0422 19:39:10.243623 1975033856 net.cpp:380] pool5/7x7_s1 -> pool5/7x7_s1
I0422 19:39:10.243628 1975033856 net.cpp:122] Setting up pool5/7x7_s1
I0422 19:39:10.243631 1975033856 net.cpp:129] Top shape: 100 1024 1 1 (102400)
I0422 19:39:10.243635 1975033856 net.cpp:137] Memory required for data: 5608852808
I0422 19:39:10.243638 1975033856 layer_factory.hpp:77] Creating layer pool5/drop_7x7_s1
I0422 19:39:10.243649 1975033856 net.cpp:84] Creating Layer pool5/drop_7x7_s1
I0422 19:39:10.243654 1975033856 net.cpp:406] pool5/drop_7x7_s1 <- pool5/7x7_s1
I0422 19:39:10.243659 1975033856 net.cpp:367] pool5/drop_7x7_s1 -> pool5/7x7_s1 (in-place)
I0422 19:39:10.243664 1975033856 net.cpp:122] Setting up pool5/drop_7x7_s1
I0422 19:39:10.243666 1975033856 net.cpp:129] Top shape: 100 1024 1 1 (102400)
I0422 19:39:10.243671 1975033856 net.cpp:137] Memory required for data: 5609262408
I0422 19:39:10.243674 1975033856 layer_factory.hpp:77] Creating layer loss3/classifier
I0422 19:39:10.243680 1975033856 net.cpp:84] Creating Layer loss3/classifier
I0422 19:39:10.243685 1975033856 net.cpp:406] loss3/classifier <- pool5/7x7_s1
I0422 19:39:10.243690 1975033856 net.cpp:380] loss3/classifier -> loss3/classifier
I0422 19:39:10.243938 1975033856 net.cpp:122] Setting up loss3/classifier
I0422 19:39:10.243943 1975033856 net.cpp:129] Top shape: 100 30 (3000)
I0422 19:39:10.243947 1975033856 net.cpp:137] Memory required for data: 5609274408
I0422 19:39:10.243952 1975033856 layer_factory.hpp:77] Creating layer loss3/loss3
I0422 19:39:10.243958 1975033856 net.cpp:84] Creating Layer loss3/loss3
I0422 19:39:10.243963 1975033856 net.cpp:406] loss3/loss3 <- loss3/classifier
I0422 19:39:10.243966 1975033856 net.cpp:406] loss3/loss3 <- label_data_1_split_2
…
I0422 19:39:10.246749 1975033856 net.cpp:294] The NetState phase (1) differed from the phase (0) specified by a rule in layer data
I0422 19:39:10.246810 1975033856 net.cpp:51] Initializing net from parameters: 
name: "DogNet"
state {
  phase: TEST
}
layer {
  name: "data"
  type: "Data"
  top: "data"
  top: "label"
  include {
    phase: TEST
  }
  transform_param {
    mirror: true
    crop_size: 224
    mean_file: "/Users/pompy/dog_judge/mean_val.binaryproto"
  }
  data_param {
    source: "/Users/pompy/dog_judge/img_val_lmdb"
    batch_size: 100
    backend: LMDB
  }
}
layer {
  name: "conv1/7x7_s2"
  type: "Convolution"
  bottom: "data"
  top: "conv1/7x7_s2"
  param {
    lr_mult: 1
    decay_mult: 1
  }
  param {
    lr_mult: 2
    decay_mult: 0
  }
  convolution_param {
    num_output: 64
    pad: 3
    kernel_size: 7
    stride: 2
    weight_filler {
      type: "xavier"
    }
    bias_filler {
      type: "constant"
      value: 0.2
    }
  }
}
layer {
  name: "conv1/relu_7x7"
  type: "ReLU"
  bottom: "conv1/7x7_s2"
  top: "conv1/7x7_s2"
}
layer {
  name: "pool1/3x3_s2"
  type: "Pooling"
  bottom: "conv1/7x7_s2"
  top: "pool1/3x3_s2"
  pooling_param {
    pool: MAX
    kernel_size: 3
    stride: 2
  }
}
layer {
  name: "pool1/norm1"
  type: "LRN"
  bottom: "pool1/3x3_s2"
  top: "pool1/norm1"
  lrn_param {
    local_size: 5
    alpha: 0.0001
    beta: 0.75
  }
}
layer {
  name: "conv2/3x3_reduce"
  type: "Convolution"
  bottom: "pool1/norm1"
  top: "conv2/3x3_reduce"
  param {
    lr_mult: 1
    decay_mult: 1
  }
  param {
    lr_mult: 2
    decay_mult: 0
  }
  convolution_param {
    num_output: 64
    kernel_size: 1
    weight_filler {
      type: "xavier"
    }
    bias_filler {
      type: "constant"
      value: 0.2
    }
  }
}
layer {
  name: "conv2/relu_3x3_reduce"
  type: "ReLU"
  bottom: "conv2/3x3_reduce"
  top: "conv2/3x3_reduce"
}
layer {
  name: "conv2/3x3"
  type: "Convolution"
  bottom: "conv2/3x3_reduce"
  top: "conv2/3x3"
  param {
    lr_mult: 1
    decay_mult: 1
  }
  param {
    lr_mult: 2
    decay_mult: 0
  }
  convolution_param {
    num_output: 192
    pad: 1
    kernel_size: 3
    weight_filler {
      type: "xavier"
    }
    bias_filler {
      type: "constant"
      value: 0.2
    }
  }
}
layer {
  name: "conv2/relu_3x3"
  type: "ReLU"
  bottom: "conv2/3x3"
  top: "conv2/3x3"
}
layer {
  name: "conv2/norm2"
  type: "LRN"
  bottom: "conv2/3x3"
  top: "conv2/norm2"
  lrn_param {
    local_size: 5
    alpha: 0.0001
    beta: 0.75
  }
}
layer {
  name: "pool2/3x3_s2"
  type: "Pooling"
  bottom: "conv2/norm2"
  top: "pool2/3x3_s2"
  pooling_param {
    pool: MAX
    kernel_size: 3
    stride: 2
  }
}
layer {
  name: "inception_3a/1x1"
  type: "Convolution"
  bottom: "pool2/3x3_s2"
  top: "inception_3a/1x1"
  param {
    lr_mult: 1
    decay_mult: 1
  }
  param {
    lr_mult: 2
    decay_mult: 0
  }
  convolution_param {
    num_output: 64
    kernel_size: 1
    weight_filler {
      type: "xavier"
    }
    bias_filler {
      type: "constant"
      value: 0.2
    }
  }
}
layer {
  name: "inception_3a/relu_1x1"
  type: "ReLU"
  bottom: "inception_3a/1x1"
  top: "inception_3a/1x1"
}
layer {
  name: "inception_3a/3x3_reduce"
  type: "Convolution"
  bottom: "pool2/3x3_s2"
  top: "inception_3a/3x3_reduce"
  param {
    lr_mult: 1
    decay_mult: 1
  }
  param {
    lr_mult: 2
    decay_mult: 0
  }
  convolution_param {
    num_output: 96
    kernel_size: 1
    weight_filler {
      type: "xavier"
    }
    bias_filler {
      type: "constant"
      value: 0.2
    }
  }
}
layer {
  name: "inception_3a/relu_3x3_reduce"
  type: "ReLU"
  bottom: "inception_3a/3x3_reduce"
  top: "inception_3a/3x3_reduce"
}
layer {
  name: "inception_3a/3x3"
  type: "Convolution"
  bottom: "inception_3a/3x3_reduce"
  top: "inception_3a/3x3"
  param {
    lr_mult: 1
    decay_mult: 1
  }
  param {
    lr_mult: 2
    decay_mult: 0
  }
  convolution_param {
    num_output: 128
    pad: 1
    kernel_size: 3
    weight_filler {
      type: "xavier"
    }
    bias_filler {
      type: "constant"
      value: 0.2
    }
  }
}
layer {
  name: "inception_3a/relu_3x3"
  type: "ReLU"
  bottom: "inception_3a/3x3"
  top: "inception_3a/3x3"
}
layer {
  name: "inception_3a/5x5_reduce"
  type: "Convolution"
  bottom: "pool2/3x3_s2"
  top: "inception_3a/5x5_reduce"
  param {
    lr_mult: 1
    decay_mult: 1
  }
  param {
    lr_mult: 2
    decay_mult: 0
  }
  convolution_param {
    num_output: 16
    kernel_size: 1
    weight_filler {
      type: "xavier"
    }
    bias_filler {
      type: "constant"
      value: 0.2
    }
  }
}
layer {
  name: "inception_3a/relu_5x5_reduce"
  type: "ReLU"
  bottom: "inception_3a/5x5_reduce"
  top: "inception_3a/5x5_reduce"
}
layer {
  name: "inception_3a/5x5"
  type: "Convolution"
  bottom: "inception_3a/5x5_reduce"
  top: "inception_3a/5x5"
  param {
    lr_mult: 1
    decay_mult: 1
  }
  param {
    lr_mult: 2
    decay_mult: 0
  }
  convolution_param {
    num_output: 32
    pad: 2
    kernel_size: 5
    weight_filler {
      type: "xavier"
    }
    bias_filler {
      type: "constant"
      value: 0.2
    }
  }
}
layer {
  name: "inception_3a/relu_5x5"
  type: "ReLU"
  bottom: "inception_3a/5x5"
  top: "inception_3a/5x5"
}
layer {
  name: "inception_3a/pool"
  type: "Pooling"
  bottom: "pool2/3x3_s2"
  top: "inception_3a/pool"
  pooling_param {
    pool: MAX
    kernel_size: 3
    stride: 1
    pad: 1
  }
}
layer {
  name: "inception_3a/pool_proj"
  type: "Convolution"
  bottom: "inception_3a/pool"
  top: "inception_3a/pool_proj"
  param {
    lr_mult: 1
    decay_mult: 1
  }
  param {
    lr_mult: 2
    decay_mult: 0
  }
  convolution_param {
    num_output: 32
    kernel_size: 1
    weight_filler {
      type: "xavier"
    }
    bias_filler {
      type: "constant"
      value: 0.2
    }
  }
}
layer {
  name: "inception_3a/relu_pool_proj"
  type: "ReLU"
  bottom: "inception_3a/pool_proj"
  top: "inception_3a/pool_proj"
}
layer {
  name: "inception_3a/output"
  type: "Concat"
  bottom: "inception_3a/1x1"
  bottom: "inception_3a/3x3"
  bottom: "inception_3a/5x5"
  bottom: "inception_3a/pool_proj"
  top: "inception_3a/output"
}
layer {
  name: "inception_3b/1x1"
  type: "Convolution"
  bottom: "inception_3a/output"
  top: "inception_3b/1x1"
  param {
    lr_mult: 1
    decay_mult: 1
  }
  param {
    lr_mult: 2
    decay_mult: 0
  }
  convolution_param {
    num_output: 128
    kernel_size: 1
    weight_filler {
      type: "xavier"
    }
    bias_filler {
      type: "constant"
      value: 0.2
    }
  }
}
layer {
  name: "inception_3b/relu_1x1"
  type: "ReLU"
  bottom: "inception_3b/1x1"
  top: "inception_3b/1x1"
}
layer {
  name: "inception_3b/3x3_reduce"
  type: "Convolution"
  bottom: "inception_3a/output"
  top: "inception_3b/3x3_reduce"
  param {
    lr_mult: 1
    decay_mult: 1
  }
  param {
    lr_mult: 2
    decay_mult: 0
  }
  convolution_param {
    num_output: 128
    kernel_size: 1
    weight_filler {
      type: "xavier"
    }
    bias_filler {
      type: "constant"
      value: 0.2
    }
  }
}
layer {
  name: "inception_3b/relu_3x3_reduce"
  type: "ReLU"
  bottom: "inception_3b/3x3_reduce"
  top: "inception_3b/3x3_reduce"
}
layer {
  name: "inception_3b/3x3"
  type: "Convolution"
  bottom: "inception_3b/3x3_reduce"
  top: "inception_3b/3x3"
  param {
    lr_mult: 1
    decay_mult: 1
  }
  param {
    lr_mult: 2
    decay_mult: 0
  }
  convolution_param {
    num_output: 192
    pad: 1
    kernel_size: 3
    weight_filler {
      type: "xavier"
    }
    bias_filler {
      type: "constant"
      value: 0.2
    }
  }
}
layer {
  name: "inception_3b/relu_3x3"
  type: "ReLU"
  bottom: "inception_3b/3x3"
  top: "inception_3b/3x3"
}
layer {
  name: "inception_3b/5x5_reduce"
  type: "Convolution"
  bottom: "inception_3a/output"
  top: "inception_3b/5x5_reduce"
  param {
    lr_mult: 1
    decay_mult: 1
  }
  param {
    lr_mult: 2
    decay_mult: 0
  }
  convolution_param {
    num_output: 32
    kernel_size: 1
    weight_filler {
…
I0422 19:39:10.395498 1975033856 net.cpp:406] inception_4c/output_inception_4c/output_0_split <- inception_4c/output
I0422 19:39:10.395503 1975033856 net.cpp:380] inception_4c/output_inception_4c/output_0_split -> inception_4c/output_inception_4c/output_0_split_0
I0422 19:39:10.395524 1975033856 net.cpp:380] inception_4c/output_inception_4c/output_0_split -> inception_4c/output_inception_4c/output_0_split_1
I0422 19:39:10.395531 1975033856 net.cpp:380] inception_4c/output_inception_4c/output_0_split -> inception_4c/output_inception_4c/output_0_split_2
I0422 19:39:10.395537 1975033856 net.cpp:380] inception_4c/output_inception_4c/output_0_split -> inception_4c/output_inception_4c/output_0_split_3
I0422 19:39:10.395543 1975033856 net.cpp:122] Setting up inception_4c/output_inception_4c/output_0_split
I0422 19:39:10.395546 1975033856 net.cpp:129] Top shape: 100 512 14 14 (10035200)
I0422 19:39:10.395551 1975033856 net.cpp:129] Top shape: 100 512 14 14 (10035200)
I0422 19:39:10.395555 1975033856 net.cpp:129] Top shape: 100 512 14 14 (10035200)
I0422 19:39:10.395560 1975033856 net.cpp:129] Top shape: 100 512 14 14 (10035200)
I0422 19:39:10.395563 1975033856 net.cpp:137] Memory required for data: 4631466412
I0422 19:39:10.395567 1975033856 layer_factory.hpp:77] Creating layer inception_4d/1x1
I0422 19:39:10.395573 1975033856 net.cpp:84] Creating Layer inception_4d/1x1
I0422 19:39:10.395576 1975033856 net.cpp:406] inception_4d/1x1 <- inception_4c/output_inception_4c/output_0_split_0
I0422 19:39:10.395581 1975033856 net.cpp:380] inception_4d/1x1 -> inception_4d/1x1
I0422 19:39:10.396069 1975033856 net.cpp:122] Setting up inception_4d/1x1
I0422 19:39:10.396073 1975033856 net.cpp:129] Top shape: 100 112 14 14 (2195200)
I0422 19:39:10.396088 1975033856 net.cpp:137] Memory required for data: 4640247212
I0422 19:39:10.396093 1975033856 layer_factory.hpp:77] Creating layer inception_4d/relu_1x1
I0422 19:39:10.396098 1975033856 net.cpp:84] Creating Layer inception_4d/relu_1x1
I0422 19:39:10.396102 1975033856 net.cpp:406] inception_4d/relu_1x1 <- inception_4d/1x1
I0422 19:39:10.396106 1975033856 net.cpp:367] inception_4d/relu_1x1 -> inception_4d/1x1 (in-place)
I0422 19:39:10.396112 1975033856 net.cpp:122] Setting up inception_4d/relu_1x1
I0422 19:39:10.396116 1975033856 net.cpp:129] Top shape: 100 112 14 14 (2195200)
I0422 19:39:10.396121 1975033856 net.cpp:137] Memory required for data: 4649028012
I0422 19:39:10.396123 1975033856 layer_factory.hpp:77] Creating layer inception_4d/3x3_reduce
I0422 19:39:10.396136 1975033856 net.cpp:84] Creating Layer inception_4d/3x3_reduce
I0422 19:39:10.396139 1975033856 net.cpp:406] inception_4d/3x3_reduce <- inception_4c/output_inception_4c/output_0_split_1
I0422 19:39:10.396144 1975033856 net.cpp:380] inception_4d/3x3_reduce -> inception_4d/3x3_reduce
I0422 19:39:10.396744 1975033856 net.cpp:122] Setting up inception_4d/3x3_reduce
I0422 19:39:10.396749 1975033856 net.cpp:129] Top shape: 100 144 14 14 (2822400)
I0422 19:39:10.396764 1975033856 net.cpp:137] Memory required for data: 4660317612
I0422 19:39:10.396769 1975033856 layer_factory.hpp:77] Creating layer inception_4d/relu_3x3_reduce
I0422 19:39:10.396773 1975033856 net.cpp:84] Creating Layer inception_4d/relu_3x3_reduce
I0422 19:39:10.396777 1975033856 net.cpp:406] inception_4d/relu_3x3_reduce <- inception_4d/3x3_reduce
I0422 19:39:10.396781 1975033856 net.cpp:367] inception_4d/relu_3x3_reduce -> inception_4d/3x3_reduce (in-place)
I0422 19:39:10.396786 1975033856 net.cpp:122] Setting up inception_4d/relu_3x3_reduce
I0422 19:39:10.396790 1975033856 net.cpp:129] Top shape: 100 144 14 14 (2822400)
I0422 19:39:10.396795 1975033856 net.cpp:137] Memory required for data: 4671607212
I0422 19:39:10.396797 1975033856 layer_factory.hpp:77] Creating layer inception_4d/3x3
I0422 19:39:10.396803 1975033856 net.cpp:84] Creating Layer inception_4d/3x3
I0422 19:39:10.396807 1975033856 net.cpp:406] inception_4d/3x3 <- inception_4d/3x3_reduce
I0422 19:39:10.396812 1975033856 net.cpp:380] inception_4d/3x3 -> inception_4d/3x3
I0422 19:39:10.400245 1975033856 net.cpp:122] Setting up inception_4d/3x3
I0422 19:39:10.400269 1975033856 net.cpp:129] Top shape: 100 288 14 14 (5644800)
I0422 19:39:10.400275 1975033856 net.cpp:137] Memory required for data: 4694186412
I0422 19:39:10.400285 1975033856 layer_factory.hpp:77] Creating layer inception_4d/relu_3x3
I0422 19:39:10.400322 1975033856 net.cpp:84] Creating Layer inception_4d/relu_3x3
I0422 19:39:10.400331 1975033856 net.cpp:406] inception_4d/relu_3x3 <- inception_4d/3x3
I0422 19:39:10.400339 1975033856 net.cpp:367] inception_4d/relu_3x3 -> inception_4d/3x3 (in-place)
I0422 19:39:10.400347 1975033856 net.cpp:122] Setting up inception_4d/relu_3x3
I0422 19:39:10.400351 1975033856 net.cpp:129] Top shape: 100 288 14 14 (5644800)
I0422 19:39:10.400357 1975033856 net.cpp:137] Memory required for data: 4716765612
I0422 19:39:10.400360 1975033856 layer_factory.hpp:77] Creating layer inception_4d/5x5_reduce
I0422 19:39:10.400368 1975033856 net.cpp:84] Creating Layer inception_4d/5x5_reduce
I0422 19:39:10.400374 1975033856 net.cpp:406] inception_4d/5x5_reduce <- inception_4c/output_inception_4c/output_0_split_2
I0422 19:39:10.400379 1975033856 net.cpp:380] inception_4d/5x5_reduce -> inception_4d/5x5_reduce
I0422 19:39:10.400544 1975033856 net.cpp:122] Setting up inception_4d/5x5_reduce
I0422 19:39:10.400549 1975033856 net.cpp:129] Top shape: 100 32 14 14 (627200)
I0422 19:39:10.400554 1975033856 net.cpp:137] Memory required for data: 4719274412
I0422 19:39:10.400559 1975033856 layer_factory.hpp:77] Creating layer inception_4d/relu_5x5_reduce
I0422 19:39:10.400564 1975033856 net.cpp:84] Creating Layer inception_4d/relu_5x5_reduce
I0422 19:39:10.400568 1975033856 net.cpp:406] inception_4d/relu_5x5_reduce <- inception_4d/5x5_reduce
I0422 19:39:10.400573 1975033856 net.cpp:367] inception_4d/relu_5x5_reduce -> inception_4d/5x5_reduce (in-place)
I0422 19:39:10.400579 1975033856 net.cpp:122] Setting up inception_4d/relu_5x5_reduce
I0422 19:39:10.400583 1975033856 net.cpp:129] Top shape: 100 32 14 14 (627200)
I0422 19:39:10.400588 1975033856 net.cpp:137] Memory required for data: 4721783212
I0422 19:39:10.400590 1975033856 layer_factory.hpp:77] Creating layer inception_4d/5x5
I0422 19:39:10.400598 1975033856 net.cpp:84] Creating Layer inception_4d/5x5
I0422 19:39:10.400600 1975033856 net.cpp:406] inception_4d/5x5 <- inception_4d/5x5_reduce
I0422 19:39:10.400606 1975033856 net.cpp:380] inception_4d/5x5 -> inception_4d/5x5
I0422 19:39:10.400960 1975033856 net.cpp:122] Setting up inception_4d/5x5
I0422 19:39:10.400965 1975033856 net.cpp:129] Top shape: 100 64 14 14 (1254400)
I0422 19:39:10.400969 1975033856 net.cpp:137] Memory required for data: 4726800812
I0422 19:39:10.400974 1975033856 layer_factory.hpp:77] Creating layer inception_4d/relu_5x5
I0422 19:39:10.400979 1975033856 net.cpp:84] Creating Layer inception_4d/relu_5x5
I0422 19:39:10.400984 1975033856 net.cpp:406] inception_4d/relu_5x5 <- inception_4d/5x5
I0422 19:39:10.400987 1975033856 net.cpp:367] inception_4d/relu_5x5 -> inception_4d/5x5 (in-place)
I0422 19:39:10.400993 1975033856 net.cpp:122] Setting up inception_4d/relu_5x5
I0422 19:39:10.400996 1975033856 net.cpp:129] Top shape: 100 64 14 14 (1254400)
I0422 19:39:10.401000 1975033856 net.cpp:137] Memory required for data: 4731818412
I0422 19:39:10.401005 1975033856 layer_factory.hpp:77] Creating layer inception_4d/pool
I0422 19:39:10.401010 1975033856 net.cpp:84] Creating Layer inception_4d/pool
I0422 19:39:10.401015 1975033856 net.cpp:406] inception_4d/pool <- inception_4c/output_inception_4c/output_0_split_3
I0422 19:39:10.401020 1975033856 net.cpp:380] inception_4d/pool -> inception_4d/pool
I0422 19:39:10.401026 1975033856 net.cpp:122] Setting up inception_4d/pool
I0422 19:39:10.401031 1975033856 net.cpp:129] Top shape: 100 512 14 14 (10035200)
I0422 19:39:10.401036 1975033856 net.cpp:137] Memory required for data: 4771959212
I0422 19:39:10.401039 1975033856 layer_factory.hpp:77] Creating layer inception_4d/pool_proj
I0422 19:39:10.401046 1975033856 net.cpp:84] Creating Layer inception_4d/pool_proj
I0422 19:39:10.401051 1975033856 net.cpp:406] inception_4d/pool_proj <- inception_4d/pool
I0422 19:39:10.401062 1975033856 net.cpp:380] inception_4d/pool_proj -> inception_4d/pool_proj
I0422 19:39:10.401408 1975033856 net.cpp:122] Setting up inception_4d/pool_proj
I0422 19:39:10.401415 1975033856 net.cpp:129] Top shape: 100 64 14 14 (1254400)
I0422 19:39:10.401432 1975033856 net.cpp:137] Memory required for data: 4776976812
I0422 19:39:10.401438 1975033856 layer_factory.hpp:77] Creating layer inception_4d/relu_pool_proj
I0422 19:39:10.401443 1975033856 net.cpp:84] Creating Layer inception_4d/relu_pool_proj
I0422 19:39:10.401448 1975033856 net.cpp:406] inception_4d/relu_pool_proj <- inception_4d/pool_proj
I0422 19:39:10.401451 1975033856 net.cpp:367] inception_4d/relu_pool_proj -> inception_4d/pool_proj (in-place)
I0422 19:39:10.401458 1975033856 net.cpp:122] Setting up inception_4d/relu_pool_proj
I0422 19:39:10.401460 1975033856 net.cpp:129] Top shape: 100 64 14 14 (1254400)
I0422 19:39:10.401464 1975033856 net.cpp:137] Memory required for data: 4781994412
I0422 19:39:10.401468 1975033856 layer_factory.hpp:77] Creating layer inception_4d/output
I0422 19:39:10.401473 1975033856 net.cpp:84] Creating Layer inception_4d/output
I0422 19:39:10.401476 1975033856 net.cpp:406] inception_4d/output <- inception_4d/1x1
I0422 19:39:10.401480 1975033856 net.cpp:406] inception_4d/output <- inception_4d/3x3
I0422 19:39:10.401484 1975033856 net.cpp:406] inception_4d/output <- inception_4d/5x5
I0422 19:39:10.401489 1975033856 net.cpp:406] inception_4d/output <- inception_4d/pool_proj
I0422 19:39:10.401500 1975033856 net.cpp:380] inception_4d/output -> inception_4d/output
I0422 19:39:10.401510 1975033856 net.cpp:122] Setting up inception_4d/output
I0422 19:39:10.401516 1975033856 net.cpp:129] Top shape: 100 528 14 14 (10348800)
I0422 19:39:10.401522 1975033856 net.cpp:137] Memory required for data: 4823389612
I0422 19:39:10.401526 1975033856 layer_factory.hpp:77] Creating layer inception_4d/output_inception_4d/output_0_split
I0422 19:39:10.401532 1975033856 net.cpp:84] Creating Layer inception_4d/output_inception_4d/output_0_split
I0422 19:39:10.401536 1975033856 net.cpp:406] inception_4d/output_inception_4d/output_0_split <- inception_4d/output
I0422 19:39:10.401541 1975033856 net.cpp:380] inception_4d/output_inception_4d/output_0_split -> inception_4d/output_inception_4d/output_0_split_0
I0422 19:39:10.401548 1975033856 net.cpp:380] inception_4d/output_inception_4d/output_0_split -> inception_4d/output_inception_4d/output_0_split_1
I0422 19:39:10.401554 1975033856 net.cpp:380] inception_4d/output_inception_4d/output_0_split -> inception_4d/output_inception_4d/output_0_split_2
I0422 19:39:10.401561 1975033856 net.cpp:380] inception_4d/output_inception_4d/output_0_split -> inception_4d/output_inception_4d/output_0_split_3
I0422 19:39:10.401566 1975033856 net.cpp:380] inception_4d/output_inception_4d/output_0_split -> inception_4d/output_inception_4d/output_0_split_4
I0422 19:39:10.401573 1975033856 net.cpp:122] Setting up inception_4d/output_inception_4d/output_0_split
I0422 19:39:10.401577 1975033856 net.cpp:129] Top shape: 100 528 14 14 (10348800)
I0422 19:39:10.401582 1975033856 net.cpp:129] Top shape: 100 528 14 14 (10348800)
I0422 19:39:10.401585 1975033856 net.cpp:129] Top shape: 100 528 14 14 (10348800)
I0422 19:39:10.401589 1975033856 net.cpp:129] Top shape: 100 528 14 14 (10348800)
I0422 19:39:10.401593 1975033856 net.cpp:129] Top shape: 100 528 14 14 (10348800)
I0422 19:39:10.401598 1975033856 net.cpp:137] Memory required for data: 5030365612
I0422 19:39:10.401602 1975033856 layer_factory.hpp:77] Creating layer loss2/ave_pool
I0422 19:39:10.401607 1975033856 net.cpp:84] Creating Layer loss2/ave_pool
I0422 19:39:10.401610 1975033856 net.cpp:406] loss2/ave_pool <- inception_4d/output_inception_4d/output_0_split_0
I0422 19:39:10.401614 1975033856 net.cpp:380] loss2/ave_pool -> loss2/ave_pool
I0422 19:39:10.401620 1975033856 net.cpp:122] Setting up loss2/ave_pool
I0422 19:39:10.401624 1975033856 net.cpp:129] Top shape: 100 528 4 4 (844800)
I0422 19:39:10.401631 1975033856 net.cpp:137] Memory required for data: 5033744812
I0422 19:39:10.401638 1975033856 layer_factory.hpp:77] Creating layer loss2/conv
I0422 19:39:10.401645 1975033856 net.cpp:84] Creating Layer loss2/conv
I0422 19:39:10.401648 1975033856 net.cpp:406] loss2/conv <- loss2/ave_pool
I0422 19:39:10.401667 1975033856 net.cpp:380] loss2/conv -> loss2/conv
I0422 19:39:10.402232 1975033856 net.cpp:122] Setting up loss2/conv
I0422 19:39:10.402238 1975033856 net.cpp:129] Top shape: 100 128 4 4 (204800)
I0422 19:39:10.402242 1975033856 net.cpp:137] Memory required for data: 5034564012
I0422 19:39:10.402248 1975033856 layer_factory.hpp:77] Creating layer loss2/relu_conv
I0422 19:39:10.402252 1975033856 net.cpp:84] Creating Layer loss2/relu_conv
I0422 19:39:10.402256 1975033856 net.cpp:406] loss2/relu_conv <- loss2/conv
I0422 19:39:10.402261 1975033856 net.cpp:367] loss2/relu_conv -> loss2/conv (in-place)
I0422 19:39:10.402266 1975033856 net.cpp:122] Setting up loss2/relu_conv
I0422 19:39:10.402269 1975033856 net.cpp:129] Top shape: 100 128 4 4 (204800)
I0422 19:39:10.402273 1975033856 net.cpp:137] Memory required for data: 5035383212
I0422 19:39:10.402277 1975033856 layer_factory.hpp:77] Creating layer loss2/fc
I0422 19:39:10.402283 1975033856 net.cpp:84] Creating Layer loss2/fc
I0422 19:39:10.402288 1975033856 net.cpp:406] loss2/fc <- loss2/conv
I0422 19:39:10.402297 1975033856 net.cpp:380] loss2/fc -> loss2/fc
I0422 19:39:10.419698 1975033856 net.cpp:122] Setting up loss2/fc
I0422 19:39:10.419713 1975033856 net.cpp:129] Top shape: 100 1024 (102400)
I0422 19:39:10.419730 1975033856 net.cpp:137] Memory required for data: 5035792812
I0422 19:39:10.419737 1975033856 layer_factory.hpp:77] Creating layer loss2/relu_fc
I0422 19:39:10.419744 1975033856 net.cpp:84] Creating Layer loss2/relu_fc
I0422 19:39:10.419749 1975033856 net.cpp:406] loss2/relu_fc <- loss2/fc
I0422 19:39:10.419756 1975033856 net.cpp:367] loss2/relu_fc -> loss2/fc (in-place)
I0422 19:39:10.419764 1975033856 net.cpp:122] Setting up loss2/relu_fc
I0422 19:39:10.419767 1975033856 net.cpp:129] Top shape: 100 1024 (102400)
I0422 19:39:10.419771 1975033856 net.cpp:137] Memory required for data: 5036202412
I0422 19:39:10.419775 1975033856 layer_factory.hpp:77] Creating layer loss2/drop_fc
I0422 19:39:10.419780 1975033856 net.cpp:84] Creating Layer loss2/drop_fc
I0422 19:39:10.419785 1975033856 net.cpp:406] loss2/drop_fc <- loss2/fc
I0422 19:39:10.419790 1975033856 net.cpp:367] loss2/drop_fc -> loss2/fc (in-place)
I0422 19:39:10.419800 1975033856 net.cpp:122] Setting up loss2/drop_fc
I0422 19:39:10.419803 1975033856 net.cpp:129] Top shape: 100 1024 (102400)
I0422 19:39:10.419807 1975033856 net.cpp:137] Memory required for data: 5036612012
I0422 19:39:10.419813 1975033856 layer_factory.hpp:77] Creating layer loss2/classifier
I0422 19:39:10.419822 1975033856 net.cpp:84] Creating Layer loss2/classifier
I0422 19:39:10.419829 1975033856 net.cpp:406] loss2/classifier <- loss2/fc
I0422 19:39:10.419834 1975033856 net.cpp:380] loss2/classifier -> loss2/classifier
I0422 19:39:10.428151 1975033856 net.cpp:122] Setting up loss2/classifier
I0422 19:39:10.428169 1975033856 net.cpp:129] Top shape: 100 1000 (100000)
I0422 19:39:10.428184 1975033856 net.cpp:137] Memory required for data: 5037012012
I0422 19:39:10.428190 1975033856 layer_factory.hpp:77] Creating layer loss2/classifier_loss2/classifier_0_split
I0422 19:39:10.428200 1975033856 net.cpp:84] Creating Layer loss2/classifier_loss2/classifier_0_split
I0422 19:39:10.428206 1975033856 net.cpp:406] loss2/classifier_loss2/classifier_0_split <- loss2/classifier
I0422 19:39:10.428211 1975033856 net.cpp:380] loss2/classifier_loss2/classifier_0_split -> loss2/classifier_loss2/classifier_0_split_0
I0422 19:39:10.428220 1975033856 net.cpp:380] loss2/classifier_loss2/classifier_0_split -> loss2/classifier_loss2/classifier_0_split_1
I0422 19:39:10.428226 1975033856 net.cpp:380] loss2/classifier_loss2/classifier_0_split -> loss2/classifier_loss2/classifier_0_split_2
I0422 19:39:10.428233 1975033856 net.cpp:122] Setting up loss2/classifier_loss2/classifier_0_split
I0422 19:39:10.428237 1975033856 net.cpp:129] Top shape: 100 1000 (100000)
I0422 19:39:10.428241 1975033856 net.cpp:129] Top shape: 100 1000 (100000)
I0422 19:39:10.428246 1975033856 net.cpp:129] Top shape: 100 1000 (100000)
I0422 19:39:10.428249 1975033856 net.cpp:137] Memory required for data: 5038212012
I0422 19:39:10.428275 1975033856 layer_factory.hpp:77] Creating layer loss2/loss
I0422 19:39:10.428282 1975033856 net.cpp:84] Creating Layer loss2/loss
I0422 19:39:10.428287 1975033856 net.cpp:406] loss2/loss <- loss2/classifier_loss2/classifier_0_split_0
I0422 19:39:10.428294 1975033856 net.cpp:406] loss2/loss <- label_data_1_split_3
…
I0422 19:39:10.428637 1975033856 net.cpp:129] Top shape: (1)
I0422 19:39:10.428640 1975033856 net.cpp:137] Memory required for data: 5038212024
I0422 19:39:10.428648 1975033856 layer_factory.hpp:77] Creating layer inception_4e/1x1
I0422 19:39:10.428658 1975033856 net.cpp:84] Creating Layer inception_4e/1x1
I0422 19:39:10.428663 1975033856 net.cpp:406] inception_4e/1x1 <- inception_4d/output_inception_4d/output_0_split_1
I0422 19:39:10.428668 1975033856 net.cpp:380] inception_4e/1x1 -> inception_4e/1x1
I0422 19:39:10.429770 1975033856 net.cpp:122] Setting up inception_4e/1x1
I0422 19:39:10.429781 1975033856 net.cpp:129] Top shape: 100 256 14 14 (5017600)
I0422 19:39:10.429797 1975033856 net.cpp:137] Memory required for data: 5058282424
I0422 19:39:10.429805 1975033856 layer_factory.hpp:77] Creating layer inception_4e/relu_1x1
I0422 19:39:10.429810 1975033856 net.cpp:84] Creating Layer inception_4e/relu_1x1
I0422 19:39:10.429814 1975033856 net.cpp:406] inception_4e/relu_1x1 <- inception_4e/1x1
I0422 19:39:10.429821 1975033856 net.cpp:367] inception_4e/relu_1x1 -> inception_4e/1x1 (in-place)
I0422 19:39:10.429826 1975033856 net.cpp:122] Setting up inception_4e/relu_1x1
I0422 19:39:10.429829 1975033856 net.cpp:129] Top shape: 100 256 14 14 (5017600)
I0422 19:39:10.429836 1975033856 net.cpp:137] Memory required for data: 5078352824
I0422 19:39:10.429839 1975033856 layer_factory.hpp:77] Creating layer inception_4e/3x3_reduce
I0422 19:39:10.429865 1975033856 net.cpp:84] Creating Layer inception_4e/3x3_reduce
I0422 19:39:10.429870 1975033856 net.cpp:406] inception_4e/3x3_reduce <- inception_4d/output_inception_4d/output_0_split_2
I0422 19:39:10.429913 1975033856 net.cpp:380] inception_4e/3x3_reduce -> inception_4e/3x3_reduce
I0422 19:39:10.430670 1975033856 net.cpp:122] Setting up inception_4e/3x3_reduce
I0422 19:39:10.430676 1975033856 net.cpp:129] Top shape: 100 160 14 14 (3136000)
I0422 19:39:10.430693 1975033856 net.cpp:137] Memory required for data: 5090896824
I0422 19:39:10.430698 1975033856 layer_factory.hpp:77] Creating layer inception_4e/relu_3x3_reduce
I0422 19:39:10.430704 1975033856 net.cpp:84] Creating Layer inception_4e/relu_3x3_reduce
I0422 19:39:10.430723 1975033856 net.cpp:406] inception_4e/relu_3x3_reduce <- inception_4e/3x3_reduce
I0422 19:39:10.430773 1975033856 net.cpp:367] inception_4e/relu_3x3_reduce -> inception_4e/3x3_reduce (in-place)
I0422 19:39:10.430786 1975033856 net.cpp:122] Setting up inception_4e/relu_3x3_reduce
I0422 19:39:10.430791 1975033856 net.cpp:129] Top shape: 100 160 14 14 (3136000)
I0422 19:39:10.430796 1975033856 net.cpp:137] Memory required for data: 5103440824
I0422 19:39:10.430800 1975033856 layer_factory.hpp:77] Creating layer inception_4e/3x3
I0422 19:39:10.430807 1975033856 net.cpp:84] Creating Layer inception_4e/3x3
I0422 19:39:10.430812 1975033856 net.cpp:406] inception_4e/3x3 <- inception_4e/3x3_reduce
I0422 19:39:10.430820 1975033856 net.cpp:380] inception_4e/3x3 -> inception_4e/3x3
I0422 19:39:10.434981 1975033856 net.cpp:122] Setting up inception_4e/3x3
I0422 19:39:10.434998 1975033856 net.cpp:129] Top shape: 100 320 14 14 (6272000)
I0422 19:39:10.435014 1975033856 net.cpp:137] Memory required for data: 5128528824
I0422 19:39:10.435020 1975033856 layer_factory.hpp:77] Creating layer inception_4e/relu_3x3
I0422 19:39:10.435026 1975033856 net.cpp:84] Creating Layer inception_4e/relu_3x3
I0422 19:39:10.435031 1975033856 net.cpp:406] inception_4e/relu_3x3 <- inception_4e/3x3
I0422 19:39:10.435036 1975033856 net.cpp:367] inception_4e/relu_3x3 -> inception_4e/3x3 (in-place)
I0422 19:39:10.435044 1975033856 net.cpp:122] Setting up inception_4e/relu_3x3
I0422 19:39:10.435047 1975033856 net.cpp:129] Top shape: 100 320 14 14 (6272000)
I0422 19:39:10.435051 1975033856 net.cpp:137] Memory required for data: 5153616824
I0422 19:39:10.435055 1975033856 layer_factory.hpp:77] Creating layer inception_4e/5x5_reduce
I0422 19:39:10.435062 1975033856 net.cpp:84] Creating Layer inception_4e/5x5_reduce
I0422 19:39:10.435067 1975033856 net.cpp:406] inception_4e/5x5_reduce <- inception_4d/output_inception_4d/output_0_split_3
I0422 19:39:10.435075 1975033856 net.cpp:380] inception_4e/5x5_reduce -> inception_4e/5x5_reduce
I0422 19:39:10.435206 1975033856 net.cpp:122] Setting up inception_4e/5x5_reduce
I0422 19:39:10.435211 1975033856 net.cpp:129] Top shape: 100 32 14 14 (627200)
I0422 19:39:10.435215 1975033856 net.cpp:137] Memory required for data: 5156125624
I0422 19:39:10.435220 1975033856 layer_factory.hpp:77] Creating layer inception_4e/relu_5x5_reduce
I0422 19:39:10.435225 1975033856 net.cpp:84] Creating Layer inception_4e/relu_5x5_reduce
I0422 19:39:10.435230 1975033856 net.cpp:406] inception_4e/relu_5x5_reduce <- inception_4e/5x5_reduce
I0422 19:39:10.435237 1975033856 net.cpp:367] inception_4e/relu_5x5_reduce -> inception_4e/5x5_reduce (in-place)
I0422 19:39:10.435246 1975033856 net.cpp:122] Setting up inception_4e/relu_5x5_reduce
I0422 19:39:10.435253 1975033856 net.cpp:129] Top shape: 100 32 14 14 (627200)
I0422 19:39:10.435258 1975033856 net.cpp:137] Memory required for data: 5158634424
I0422 19:39:10.435262 1975033856 layer_factory.hpp:77] Creating layer inception_4e/5x5
I0422 19:39:10.435268 1975033856 net.cpp:84] Creating Layer inception_4e/5x5
I0422 19:39:10.435271 1975033856 net.cpp:406] inception_4e/5x5 <- inception_4e/5x5_reduce
I0422 19:39:10.435276 1975033856 net.cpp:380] inception_4e/5x5 -> inception_4e/5x5
I0422 19:39:10.436130 1975033856 net.cpp:122] Setting up inception_4e/5x5
I0422 19:39:10.436136 1975033856 net.cpp:129] Top shape: 100 128 14 14 (2508800)
I0422 19:39:10.436152 1975033856 net.cpp:137] Memory required for data: 5168669624
I0422 19:39:10.436157 1975033856 layer_factory.hpp:77] Creating layer inception_4e/relu_5x5
I0422 19:39:10.436161 1975033856 net.cpp:84] Creating Layer inception_4e/relu_5x5
I0422 19:39:10.436166 1975033856 net.cpp:406] inception_4e/relu_5x5 <- inception_4e/5x5
I0422 19:39:10.436169 1975033856 net.cpp:367] inception_4e/relu_5x5 -> inception_4e/5x5 (in-place)
I0422 19:39:10.436174 1975033856 net.cpp:122] Setting up inception_4e/relu_5x5
I0422 19:39:10.436178 1975033856 net.cpp:129] Top shape: 100 128 14 14 (2508800)
I0422 19:39:10.436199 1975033856 net.cpp:137] Memory required for data: 5178704824
I0422 19:39:10.436226 1975033856 layer_factory.hpp:77] Creating layer inception_4e/pool
I0422 19:39:10.436234 1975033856 net.cpp:84] Creating Layer inception_4e/pool
I0422 19:39:10.436239 1975033856 net.cpp:406] inception_4e/pool <- inception_4d/output_inception_4d/output_0_split_4
I0422 19:39:10.436246 1975033856 net.cpp:380] inception_4e/pool -> inception_4e/pool
I0422 19:39:10.436262 1975033856 net.cpp:122] Setting up inception_4e/pool
I0422 19:39:10.436267 1975033856 net.cpp:129] Top shape: 100 528 14 14 (10348800)
I0422 19:39:10.436272 1975033856 net.cpp:137] Memory required for data: 5220100024
I0422 19:39:10.436276 1975033856 layer_factory.hpp:77] Creating layer inception_4e/pool_proj
I0422 19:39:10.436285 1975033856 net.cpp:84] Creating Layer inception_4e/pool_proj
I0422 19:39:10.436290 1975033856 net.cpp:406] inception_4e/pool_proj <- inception_4e/pool
I0422 19:39:10.436297 1975033856 net.cpp:380] inception_4e/pool_proj -> inception_4e/pool_proj
I0422 19:39:10.436856 1975033856 net.cpp:122] Setting up inception_4e/pool_proj
I0422 19:39:10.436863 1975033856 net.cpp:129] Top shape: 100 128 14 14 (2508800)
I0422 19:39:10.436878 1975033856 net.cpp:137] Memory required for data: 5230135224
I0422 19:39:10.436883 1975033856 layer_factory.hpp:77] Creating layer inception_4e/relu_pool_proj
I0422 19:39:10.436888 1975033856 net.cpp:84] Creating Layer inception_4e/relu_pool_proj
I0422 19:39:10.436892 1975033856 net.cpp:406] inception_4e/relu_pool_proj <- inception_4e/pool_proj
I0422 19:39:10.436897 1975033856 net.cpp:367] inception_4e/relu_pool_proj -> inception_4e/pool_proj (in-place)
I0422 19:39:10.436902 1975033856 net.cpp:122] Setting up inception_4e/relu_pool_proj
I0422 19:39:10.436908 1975033856 net.cpp:129] Top shape: 100 128 14 14 (2508800)
I0422 19:39:10.436913 1975033856 net.cpp:137] Memory required for data: 5240170424
I0422 19:39:10.436916 1975033856 layer_factory.hpp:77] Creating layer inception_4e/output
I0422 19:39:10.436921 1975033856 net.cpp:84] Creating Layer inception_4e/output
I0422 19:39:10.436924 1975033856 net.cpp:406] inception_4e/output <- inception_4e/1x1
I0422 19:39:10.436928 1975033856 net.cpp:406] inception_4e/output <- inception_4e/3x3
I0422 19:39:10.436933 1975033856 net.cpp:406] inception_4e/output <- inception_4e/5x5
I0422 19:39:10.436936 1975033856 net.cpp:406] inception_4e/output <- inception_4e/pool_proj
I0422 19:39:10.436959 1975033856 net.cpp:380] inception_4e/output -> inception_4e/output
I0422 19:39:10.436970 1975033856 net.cpp:122] Setting up inception_4e/output
I0422 19:39:10.436975 1975033856 net.cpp:129] Top shape: 100 832 14 14 (16307200)
I0422 19:39:10.436980 1975033856 net.cpp:137] Memory required for data: 5305399224
I0422 19:39:10.436985 1975033856 layer_factory.hpp:77] Creating layer pool4/3x3_s2
I0422 19:39:10.436990 1975033856 net.cpp:84] Creating Layer pool4/3x3_s2
I0422 19:39:10.436993 1975033856 net.cpp:406] pool4/3x3_s2 <- inception_4e/output
I0422 19:39:10.436998 1975033856 net.cpp:380] pool4/3x3_s2 -> pool4/3x3_s2
I0422 19:39:10.437005 1975033856 net.cpp:122] Setting up pool4/3x3_s2
I0422 19:39:10.437010 1975033856 net.cpp:129] Top shape: 100 832 7 7 (4076800)
I0422 19:39:10.437014 1975033856 net.cpp:137] Memory required for data: 5321706424
I0422 19:39:10.437017 1975033856 layer_factory.hpp:77] Creating layer pool4/3x3_s2_pool4/3x3_s2_0_split
I0422 19:39:10.437023 1975033856 net.cpp:84] Creating Layer pool4/3x3_s2_pool4/3x3_s2_0_split
I0422 19:39:10.437026 1975033856 net.cpp:406] pool4/3x3_s2_pool4/3x3_s2_0_split <- pool4/3x3_s2
I0422 19:39:10.437031 1975033856 net.cpp:380] pool4/3x3_s2_pool4/3x3_s2_0_split -> pool4/3x3_s2_pool4/3x3_s2_0_split_0
I0422 19:39:10.437037 1975033856 net.cpp:380] pool4/3x3_s2_pool4/3x3_s2_0_split -> pool4/3x3_s2_pool4/3x3_s2_0_split_1
I0422 19:39:10.437042 1975033856 net.cpp:380] pool4/3x3_s2_pool4/3x3_s2_0_split -> pool4/3x3_s2_pool4/3x3_s2_0_split_2
I0422 19:39:10.437062 1975033856 net.cpp:380] pool4/3x3_s2_pool4/3x3_s2_0_split -> pool4/3x3_s2_pool4/3x3_s2_0_split_3
I0422 19:39:10.437069 1975033856 net.cpp:122] Setting up pool4/3x3_s2_pool4/3x3_s2_0_split
I0422 19:39:10.437086 1975033856 net.cpp:129] Top shape: 100 832 7 7 (4076800)
I0422 19:39:10.437091 1975033856 net.cpp:129] Top shape: 100 832 7 7 (4076800)
I0422 19:39:10.437095 1975033856 net.cpp:129] Top shape: 100 832 7 7 (4076800)
I0422 19:39:10.437100 1975033856 net.cpp:129] Top shape: 100 832 7 7 (4076800)
I0422 19:39:10.437105 1975033856 net.cpp:137] Memory required for data: 5386935224
I0422 19:39:10.437108 1975033856 layer_factory.hpp:77] Creating layer inception_5a/1x1
I0422 19:39:10.437116 1975033856 net.cpp:84] Creating Layer inception_5a/1x1
I0422 19:39:10.437120 1975033856 net.cpp:406] inception_5a/1x1 <- pool4/3x3_s2_pool4/3x3_s2_0_split_0
I0422 19:39:10.437125 1975033856 net.cpp:380] inception_5a/1x1 -> inception_5a/1x1
I0422 19:39:10.438812 1975033856 net.cpp:122] Setting up inception_5a/1x1
I0422 19:39:10.438819 1975033856 net.cpp:129] Top shape: 100 256 7 7 (1254400)
I0422 19:39:10.438824 1975033856 net.cpp:137] Memory required for data: 5391952824
I0422 19:39:10.438829 1975033856 layer_factory.hpp:77] Creating layer inception_5a/relu_1x1
I0422 19:39:10.438834 1975033856 net.cpp:84] Creating Layer inception_5a/relu_1x1
I0422 19:39:10.438838 1975033856 net.cpp:406] inception_5a/relu_1x1 <- inception_5a/1x1
I0422 19:39:10.438843 1975033856 net.cpp:367] inception_5a/relu_1x1 -> inception_5a/1x1 (in-place)
I0422 19:39:10.438848 1975033856 net.cpp:122] Setting up inception_5a/relu_1x1
I0422 19:39:10.438851 1975033856 net.cpp:129] Top shape: 100 256 7 7 (1254400)
I0422 19:39:10.438856 1975033856 net.cpp:137] Memory required for data: 5396970424
I0422 19:39:10.438859 1975033856 layer_factory.hpp:77] Creating layer inception_5a/3x3_reduce
I0422 19:39:10.438866 1975033856 net.cpp:84] Creating Layer inception_5a/3x3_reduce
I0422 19:39:10.438869 1975033856 net.cpp:406] inception_5a/3x3_reduce <- pool4/3x3_s2_pool4/3x3_s2_0_split_1
I0422 19:39:10.438880 1975033856 net.cpp:380] inception_5a/3x3_reduce -> inception_5a/3x3_reduce
I0422 19:39:10.440042 1975033856 net.cpp:122] Setting up inception_5a/3x3_reduce
I0422 19:39:10.440052 1975033856 net.cpp:129] Top shape: 100 160 7 7 (784000)
I0422 19:39:10.440068 1975033856 net.cpp:137] Memory required for data: 5400106424
I0422 19:39:10.440084 1975033856 layer_factory.hpp:77] Creating layer inception_5a/relu_3x3_reduce
I0422 19:39:10.440093 1975033856 net.cpp:84] Creating Layer inception_5a/relu_3x3_reduce
I0422 19:39:10.440099 1975033856 net.cpp:406] inception_5a/relu_3x3_reduce <- inception_5a/3x3_reduce
I0422 19:39:10.440104 1975033856 net.cpp:367] inception_5a/relu_3x3_reduce -> inception_5a/3x3_reduce (in-place)
I0422 19:39:10.440111 1975033856 net.cpp:122] Setting up inception_5a/relu_3x3_reduce
I0422 19:39:10.440114 1975033856 net.cpp:129] Top shape: 100 160 7 7 (784000)
I0422 19:39:10.440119 1975033856 net.cpp:137] Memory required for data: 5403242424
I0422 19:39:10.440122 1975033856 layer_factory.hpp:77] Creating layer inception_5a/3x3
I0422 19:39:10.440146 1975033856 net.cpp:84] Creating Layer inception_5a/3x3
I0422 19:39:10.440156 1975033856 net.cpp:406] inception_5a/3x3 <- inception_5a/3x3_reduce
I0422 19:39:10.440165 1975033856 net.cpp:380] inception_5a/3x3 -> inception_5a/3x3
I0422 19:39:10.443950 1975033856 net.cpp:122] Setting up inception_5a/3x3
I0422 19:39:10.443959 1975033856 net.cpp:129] Top shape: 100 320 7 7 (1568000)
I0422 19:39:10.443975 1975033856 net.cpp:137] Memory required for data: 5409514424
I0422 19:39:10.443981 1975033856 layer_factory.hpp:77] Creating layer inception_5a/relu_3x3
I0422 19:39:10.443986 1975033856 net.cpp:84] Creating Layer inception_5a/relu_3x3
I0422 19:39:10.443991 1975033856 net.cpp:406] inception_5a/relu_3x3 <- inception_5a/3x3
I0422 19:39:10.443996 1975033856 net.cpp:367] inception_5a/relu_3x3 -> inception_5a/3x3 (in-place)
I0422 19:39:10.444002 1975033856 net.cpp:122] Setting up inception_5a/relu_3x3
I0422 19:39:10.444006 1975033856 net.cpp:129] Top shape: 100 320 7 7 (1568000)
I0422 19:39:10.444011 1975033856 net.cpp:137] Memory required for data: 5415786424
I0422 19:39:10.444032 1975033856 layer_factory.hpp:77] Creating layer inception_5a/5x5_reduce
I0422 19:39:10.444041 1975033856 net.cpp:84] Creating Layer inception_5a/5x5_reduce
I0422 19:39:10.444044 1975033856 net.cpp:406] inception_5a/5x5_reduce <- pool4/3x3_s2_pool4/3x3_s2_0_split_2
I0422 19:39:10.444051 1975033856 net.cpp:380] inception_5a/5x5_reduce -> inception_5a/5x5_reduce
I0422 19:39:10.444288 1975033856 net.cpp:122] Setting up inception_5a/5x5_reduce
I0422 19:39:10.444293 1975033856 net.cpp:129] Top shape: 100 32 7 7 (156800)
I0422 19:39:10.444308 1975033856 net.cpp:137] Memory required for data: 5416413624
I0422 19:39:10.444313 1975033856 layer_factory.hpp:77] Creating layer inception_5a/relu_5x5_reduce
I0422 19:39:10.444317 1975033856 net.cpp:84] Creating Layer inception_5a/relu_5x5_reduce
I0422 19:39:10.444321 1975033856 net.cpp:406] inception_5a/relu_5x5_reduce <- inception_5a/5x5_reduce
I0422 19:39:10.444325 1975033856 net.cpp:367] inception_5a/relu_5x5_reduce -> inception_5a/5x5_reduce (in-place)
I0422 19:39:10.444331 1975033856 net.cpp:122] Setting up inception_5a/relu_5x5_reduce
I0422 19:39:10.444334 1975033856 net.cpp:129] Top shape: 100 32 7 7 (156800)
I0422 19:39:10.444339 1975033856 net.cpp:137] Memory required for data: 5417040824
I0422 19:39:10.444342 1975033856 layer_factory.hpp:77] Creating layer inception_5a/5x5
I0422 19:39:10.444347 1975033856 net.cpp:84] Creating Layer inception_5a/5x5
I0422 19:39:10.444351 1975033856 net.cpp:406] inception_5a/5x5 <- inception_5a/5x5_reduce
I0422 19:39:10.444356 1975033856 net.cpp:380] inception_5a/5x5 -> inception_5a/5x5
I0422 19:39:10.445209 1975033856 net.cpp:122] Setting up inception_5a/5x5
I0422 19:39:10.445215 1975033856 net.cpp:129] Top shape: 100 128 7 7 (627200)
I0422 19:39:10.445230 1975033856 net.cpp:137] Memory required for data: 5419549624
I0422 19:39:10.445235 1975033856 layer_factory.hpp:77] Creating layer inception_5a/relu_5x5
I0422 19:39:10.445240 1975033856 net.cpp:84] Creating Layer inception_5a/relu_5x5
I0422 19:39:10.445243 1975033856 net.cpp:406] inception_5a/relu_5x5 <- inception_5a/5x5
I0422 19:39:10.445247 1975033856 net.cpp:367] inception_5a/relu_5x5 -> inception_5a/5x5 (in-place)
I0422 19:39:10.445252 1975033856 net.cpp:122] Setting up inception_5a/relu_5x5
I0422 19:39:10.445256 1975033856 net.cpp:129] Top shape: 100 128 7 7 (627200)
I0422 19:39:10.445261 1975033856 net.cpp:137] Memory required for data: 5422058424
I0422 19:39:10.445264 1975033856 layer_factory.hpp:77] Creating layer inception_5a/pool
I0422 19:39:10.445271 1975033856 net.cpp:84] Creating Layer inception_5a/pool
I0422 19:39:10.445274 1975033856 net.cpp:406] inception_5a/pool <- pool4/3x3_s2_pool4/3x3_s2_0_split_3
I0422 19:39:10.445278 1975033856 net.cpp:380] inception_5a/pool -> inception_5a/pool
I0422 19:39:10.445286 1975033856 net.cpp:122] Setting up inception_5a/pool
I0422 19:39:10.445289 1975033856 net.cpp:129] Top shape: 100 832 7 7 (4076800)
I0422 19:39:10.445293 1975033856 net.cpp:137] Memory required for data: 5438365624
I0422 19:39:10.445297 1975033856 layer_factory.hpp:77] Creating layer inception_5a/pool_proj
I0422 19:39:10.445303 1975033856 net.cpp:84] Creating Layer inception_5a/pool_proj
I0422 19:39:10.445312 1975033856 net.cpp:406] inception_5a/pool_proj <- inception_5a/pool
I0422 19:39:10.445317 1975033856 net.cpp:380] inception_5a/pool_proj -> inception_5a/pool_proj
I0422 19:39:10.446185 1975033856 net.cpp:122] Setting up inception_5a/pool_proj
I0422 19:39:10.446194 1975033856 net.cpp:129] Top shape: 100 128 7 7 (627200)
I0422 19:39:10.446209 1975033856 net.cpp:137] Memory required for data: 5440874424
I0422 19:39:10.446215 1975033856 layer_factory.hpp:77] Creating layer inception_5a/relu_pool_proj
I0422 19:39:10.446228 1975033856 net.cpp:84] Creating Layer inception_5a/relu_pool_proj
I0422 19:39:10.446233 1975033856 net.cpp:406] inception_5a/relu_pool_proj <- inception_5a/pool_proj
I0422 19:39:10.446238 1975033856 net.cpp:367] inception_5a/relu_pool_proj -> inception_5a/pool_proj (in-place)
I0422 19:39:10.446243 1975033856 net.cpp:122] Setting up inception_5a/relu_pool_proj
I0422 19:39:10.446264 1975033856 net.cpp:129] Top shape: 100 128 7 7 (627200)
I0422 19:39:10.446271 1975033856 net.cpp:137] Memory required for data: 5443383224
I0422 19:39:10.446276 1975033856 layer_factory.hpp:77] Creating layer inception_5a/output
I0422 19:39:10.446290 1975033856 net.cpp:84] Creating Layer inception_5a/output
I0422 19:39:10.446293 1975033856 net.cpp:406] inception_5a/output <- inception_5a/1x1
I0422 19:39:10.446298 1975033856 net.cpp:406] inception_5a/output <- inception_5a/3x3
I0422 19:39:10.446301 1975033856 net.cpp:406] inception_5a/output <- inception_5a/5x5
I0422 19:39:10.446305 1975033856 net.cpp:406] inception_5a/output <- inception_5a/pool_proj
I0422 19:39:10.446310 1975033856 net.cpp:380] inception_5a/output -> inception_5a/output
I0422 19:39:10.446318 1975033856 net.cpp:122] Setting up inception_5a/output
I0422 19:39:10.446322 1975033856 net.cpp:129] Top shape: 100 832 7 7 (4076800)
I0422 19:39:10.446326 1975033856 net.cpp:137] Memory required for data: 5459690424
I0422 19:39:10.446331 1975033856 layer_factory.hpp:77] Creating layer inception_5a/output_inception_5a/output_0_split
I0422 19:39:10.446337 1975033856 net.cpp:84] Creating Layer inception_5a/output_inception_5a/output_0_split
I0422 19:39:10.446341 1975033856 net.cpp:406] inception_5a/output_inception_5a/output_0_split <- inception_5a/output
I0422 19:39:10.446347 1975033856 net.cpp:380] inception_5a/output_inception_5a/output_0_split -> inception_5a/output_inception_5a/output_0_split_0
I0422 19:39:10.446353 1975033856 net.cpp:380] inception_5a/output_inception_5a/output_0_split -> inception_5a/output_inception_5a/output_0_split_1
I0422 19:39:10.446359 1975033856 net.cpp:380] inception_5a/output_inception_5a/output_0_split -> inception_5a/output_inception_5a/output_0_split_2
I0422 19:39:10.446365 1975033856 net.cpp:380] inception_5a/output_inception_5a/output_0_split -> inception_5a/output_inception_5a/output_0_split_3
I0422 19:39:10.446372 1975033856 net.cpp:122] Setting up inception_5a/output_inception_5a/output_0_split
I0422 19:39:10.446375 1975033856 net.cpp:129] Top shape: 100 832 7 7 (4076800)
I0422 19:39:10.446379 1975033856 net.cpp:129] Top shape: 100 832 7 7 (4076800)
I0422 19:39:10.446383 1975033856 net.cpp:129] Top shape: 100 832 7 7 (4076800)
I0422 19:39:10.446388 1975033856 net.cpp:129] Top shape: 100 832 7 7 (4076800)
I0422 19:39:10.446391 1975033856 net.cpp:137] Memory required for data: 5524919224
I0422 19:39:10.446395 1975033856 layer_factory.hpp:77] Creating layer inception_5b/1x1
I0422 19:39:10.446403 1975033856 net.cpp:84] Creating Layer inception_5b/1x1
I0422 19:39:10.446408 1975033856 net.cpp:406] inception_5b/1x1 <- inception_5a/output_inception_5a/output_0_split_0
I0422 19:39:10.446413 1975033856 net.cpp:380] inception_5b/1x1 -> inception_5b/1x1
I0422 19:39:10.449168 1975033856 net.cpp:122] Setting up inception_5b/1x1
I0422 19:39:10.449177 1975033856 net.cpp:129] Top shape: 100 384 7 7 (1881600)
I0422 19:39:10.449193 1975033856 net.cpp:137] Memory required for data: 5532445624
I0422 19:39:10.449198 1975033856 layer_factory.hpp:77] Creating layer inception_5b/relu_1x1
I0422 19:39:10.449204 1975033856 net.cpp:84] Creating Layer inception_5b/relu_1x1
I0422 19:39:10.449208 1975033856 net.cpp:406] inception_5b/relu_1x1 <- inception_5b/1x1
I0422 19:39:10.449213 1975033856 net.cpp:367] inception_5b/relu_1x1 -> inception_5b/1x1 (in-place)
I0422 19:39:10.449219 1975033856 net.cpp:122] Setting up inception_5b/relu_1x1
I0422 19:39:10.449223 1975033856 net.cpp:129] Top shape: 100 384 7 7 (1881600)
I0422 19:39:10.449229 1975033856 net.cpp:137] Memory required for data: 5539972024
I0422 19:39:10.449232 1975033856 layer_factory.hpp:77] Creating layer inception_5b/3x3_reduce
I0422 19:39:10.449239 1975033856 net.cpp:84] Creating Layer inception_5b/3x3_reduce
I0422 19:39:10.449242 1975033856 net.cpp:406] inception_5b/3x3_reduce <- inception_5a/output_inception_5a/output_0_split_1
I0422 19:39:10.449247 1975033856 net.cpp:380] inception_5b/3x3_reduce -> inception_5b/3x3_reduce
I0422 19:39:10.450534 1975033856 net.cpp:122] Setting up inception_5b/3x3_reduce
I0422 19:39:10.450558 1975033856 net.cpp:129] Top shape: 100 192 7 7 (940800)
I0422 19:39:10.450575 1975033856 net.cpp:137] Memory required for data: 5543735224
I0422 19:39:10.450582 1975033856 layer_factory.hpp:77] Creating layer inception_5b/relu_3x3_reduce
I0422 19:39:10.450587 1975033856 net.cpp:84] Creating Layer inception_5b/relu_3x3_reduce
I0422 19:39:10.450592 1975033856 net.cpp:406] inception_5b/relu_3x3_reduce <- inception_5b/3x3_reduce
I0422 19:39:10.450598 1975033856 net.cpp:367] inception_5b/relu_3x3_reduce -> inception_5b/3x3_reduce (in-place)
I0422 19:39:10.450605 1975033856 net.cpp:122] Setting up inception_5b/relu_3x3_reduce
I0422 19:39:10.450608 1975033856 net.cpp:129] Top shape: 100 192 7 7 (940800)
I0422 19:39:10.450613 1975033856 net.cpp:137] Memory required for data: 5547498424
I0422 19:39:10.450616 1975033856 layer_factory.hpp:77] Creating layer inception_5b/3x3
I0422 19:39:10.450623 1975033856 net.cpp:84] Creating Layer inception_5b/3x3
I0422 19:39:10.450628 1975033856 net.cpp:406] inception_5b/3x3 <- inception_5b/3x3_reduce
I0422 19:39:10.450633 1975033856 net.cpp:380] inception_5b/3x3 -> inception_5b/3x3
I0422 19:39:10.455790 1975033856 net.cpp:122] Setting up inception_5b/3x3
I0422 19:39:10.455799 1975033856 net.cpp:129] Top shape: 100 384 7 7 (1881600)
I0422 19:39:10.455816 1975033856 net.cpp:137] Memory required for data: 5555024824
I0422 19:39:10.455821 1975033856 layer_factory.hpp:77] Creating layer inception_5b/relu_3x3
I0422 19:39:10.455827 1975033856 net.cpp:84] Creating Layer inception_5b/relu_3x3
I0422 19:39:10.455832 1975033856 net.cpp:406] inception_5b/relu_3x3 <- inception_5b/3x3
I0422 19:39:10.455837 1975033856 net.cpp:367] inception_5b/relu_3x3 -> inception_5b/3x3 (in-place)
I0422 19:39:10.455860 1975033856 net.cpp:122] Setting up inception_5b/relu_3x3
I0422 19:39:10.455870 1975033856 net.cpp:129] Top shape: 100 384 7 7 (1881600)
I0422 19:39:10.455876 1975033856 net.cpp:137] Memory required for data: 5562551224
I0422 19:39:10.455880 1975033856 layer_factory.hpp:77] Creating layer inception_5b/5x5_reduce
I0422 19:39:10.455889 1975033856 net.cpp:84] Creating Layer inception_5b/5x5_reduce
I0422 19:39:10.455894 1975033856 net.cpp:406] inception_5b/5x5_reduce <- inception_5a/output_inception_5a/output_0_split_2
I0422 19:39:10.455900 1975033856 net.cpp:380] inception_5b/5x5_reduce -> inception_5b/5x5_reduce
I0422 19:39:10.456246 1975033856 net.cpp:122] Setting up inception_5b/5x5_reduce
I0422 19:39:10.456252 1975033856 net.cpp:129] Top shape: 100 48 7 7 (235200)
I0422 19:39:10.456267 1975033856 net.cpp:137] Memory required for data: 5563492024
I0422 19:39:10.456272 1975033856 layer_factory.hpp:77] Creating layer inception_5b/relu_5x5_reduce
I0422 19:39:10.456277 1975033856 net.cpp:84] Creating Layer inception_5b/relu_5x5_reduce
I0422 19:39:10.456281 1975033856 net.cpp:406] inception_5b/relu_5x5_reduce <- inception_5b/5x5_reduce
I0422 19:39:10.456285 1975033856 net.cpp:367] inception_5b/relu_5x5_reduce -> inception_5b/5x5_reduce (in-place)
I0422 19:39:10.456291 1975033856 net.cpp:122] Setting up inception_5b/relu_5x5_reduce
I0422 19:39:10.456295 1975033856 net.cpp:129] Top shape: 100 48 7 7 (235200)
I0422 19:39:10.456300 1975033856 net.cpp:137] Memory required for data: 5564432824
I0422 19:39:10.456303 1975033856 layer_factory.hpp:77] Creating layer inception_5b/5x5
I0422 19:39:10.456316 1975033856 net.cpp:84] Creating Layer inception_5b/5x5
I0422 19:39:10.456321 1975033856 net.cpp:406] inception_5b/5x5 <- inception_5b/5x5_reduce
I0422 19:39:10.456326 1975033856 net.cpp:380] inception_5b/5x5 -> inception_5b/5x5
I0422 19:39:10.457576 1975033856 net.cpp:122] Setting up inception_5b/5x5
I0422 19:39:10.457583 1975033856 net.cpp:129] Top shape: 100 128 7 7 (627200)
I0422 19:39:10.457598 1975033856 net.cpp:137] Memory required for data: 5566941624
I0422 19:39:10.457604 1975033856 layer_factory.hpp:77] Creating layer inception_5b/relu_5x5
I0422 19:39:10.457609 1975033856 net.cpp:84] Creating Layer inception_5b/relu_5x5
I0422 19:39:10.457613 1975033856 net.cpp:406] inception_5b/relu_5x5 <- inception_5b/5x5
I0422 19:39:10.457646 1975033856 net.cpp:367] inception_5b/relu_5x5 -> inception_5b/5x5 (in-place)
I0422 19:39:10.457653 1975033856 net.cpp:122] Setting up inception_5b/relu_5x5
I0422 19:39:10.457657 1975033856 net.cpp:129] Top shape: 100 128 7 7 (627200)
I0422 19:39:10.457662 1975033856 net.cpp:137] Memory required for data: 5569450424
I0422 19:39:10.457666 1975033856 layer_factory.hpp:77] Creating layer inception_5b/pool
I0422 19:39:10.457672 1975033856 net.cpp:84] Creating Layer inception_5b/pool
I0422 19:39:10.457677 1975033856 net.cpp:406] inception_5b/pool <- inception_5a/output_inception_5a/output_0_split_3
I0422 19:39:10.457682 1975033856 net.cpp:380] inception_5b/pool -> inception_5b/pool
I0422 19:39:10.457690 1975033856 net.cpp:122] Setting up inception_5b/pool
I0422 19:39:10.457695 1975033856 net.cpp:129] Top shape: 100 832 7 7 (4076800)
I0422 19:39:10.457700 1975033856 net.cpp:137] Memory required for data: 5585757624
I0422 19:39:10.457703 1975033856 layer_factory.hpp:77] Creating layer inception_5b/pool_proj
I0422 19:39:10.457710 1975033856 net.cpp:84] Creating Layer inception_5b/pool_proj
I0422 19:39:10.457713 1975033856 net.cpp:406] inception_5b/pool_proj <- inception_5b/pool
I0422 19:39:10.457720 1975033856 net.cpp:380] inception_5b/pool_proj -> inception_5b/pool_proj
I0422 19:39:10.458575 1975033856 net.cpp:122] Setting up inception_5b/pool_proj
I0422 19:39:10.458581 1975033856 net.cpp:129] Top shape: 100 128 7 7 (627200)
I0422 19:39:10.458596 1975033856 net.cpp:137] Memory required for data: 5588266424
I0422 19:39:10.458601 1975033856 layer_factory.hpp:77] Creating layer inception_5b/relu_pool_proj
I0422 19:39:10.458606 1975033856 net.cpp:84] Creating Layer inception_5b/relu_pool_proj
I0422 19:39:10.458611 1975033856 net.cpp:406] inception_5b/relu_pool_proj <- inception_5b/pool_proj
I0422 19:39:10.458616 1975033856 net.cpp:367] inception_5b/relu_pool_proj -> inception_5b/pool_proj (in-place)
I0422 19:39:10.458621 1975033856 net.cpp:122] Setting up inception_5b/relu_pool_proj
I0422 19:39:10.458626 1975033856 net.cpp:129] Top shape: 100 128 7 7 (627200)
I0422 19:39:10.458629 1975033856 net.cpp:137] Memory required for data: 5590775224
I0422 19:39:10.458633 1975033856 layer_factory.hpp:77] Creating layer inception_5b/output
I0422 19:39:10.458645 1975033856 net.cpp:84] Creating Layer inception_5b/output
I0422 19:39:10.458650 1975033856 net.cpp:406] inception_5b/output <- inception_5b/1x1
I0422 19:39:10.458654 1975033856 net.cpp:406] inception_5b/output <- inception_5b/3x3
I0422 19:39:10.458658 1975033856 net.cpp:406] inception_5b/output <- inception_5b/5x5
I0422 19:39:10.458662 1975033856 net.cpp:406] inception_5b/output <- inception_5b/pool_proj
I0422 19:39:10.458667 1975033856 net.cpp:380] inception_5b/output -> inception_5b/output
I0422 19:39:10.458674 1975033856 net.cpp:122] Setting up inception_5b/output
I0422 19:39:10.458678 1975033856 net.cpp:129] Top shape: 100 1024 7 7 (5017600)
I0422 19:39:10.458683 1975033856 net.cpp:137] Memory required for data: 5610845624
I0422 19:39:10.458685 1975033856 layer_factory.hpp:77] Creating layer pool5/7x7_s1
I0422 19:39:10.458690 1975033856 net.cpp:84] Creating Layer pool5/7x7_s1
I0422 19:39:10.458694 1975033856 net.cpp:406] pool5/7x7_s1 <- inception_5b/output
I0422 19:39:10.458699 1975033856 net.cpp:380] pool5/7x7_s1 -> pool5/7x7_s1
I0422 19:39:10.458704 1975033856 net.cpp:122] Setting up pool5/7x7_s1
I0422 19:39:10.458709 1975033856 net.cpp:129] Top shape: 100 1024 1 1 (102400)
I0422 19:39:10.458712 1975033856 net.cpp:137] Memory required for data: 5611255224
I0422 19:39:10.458716 1975033856 layer_factory.hpp:77] Creating layer pool5/drop_7x7_s1
I0422 19:39:10.458721 1975033856 net.cpp:84] Creating Layer pool5/drop_7x7_s1
I0422 19:39:10.458725 1975033856 net.cpp:406] pool5/drop_7x7_s1 <- pool5/7x7_s1
I0422 19:39:10.458729 1975033856 net.cpp:367] pool5/drop_7x7_s1 -> pool5/7x7_s1 (in-place)
I0422 19:39:10.458735 1975033856 net.cpp:122] Setting up pool5/drop_7x7_s1
I0422 19:39:10.458739 1975033856 net.cpp:129] Top shape: 100 1024 1 1 (102400)
I0422 19:39:10.458755 1975033856 net.cpp:137] Memory required for data: 5611664824
I0422 19:39:10.458760 1975033856 layer_factory.hpp:77] Creating layer loss3/classifier
I0422 19:39:10.458765 1975033856 net.cpp:84] Creating Layer loss3/classifier
I0422 19:39:10.458768 1975033856 net.cpp:406] loss3/classifier <- pool5/7x7_s1
I0422 19:39:10.458775 1975033856 net.cpp:380] loss3/classifier -> loss3/classifier
I0422 19:39:10.459033 1975033856 net.cpp:122] Setting up loss3/classifier
I0422 19:39:10.459038 1975033856 net.cpp:129] Top shape: 100 30 (3000)
I0422 19:39:10.459043 1975033856 net.cpp:137] Memory required for data: 5611676824
I0422 19:39:10.459048 1975033856 layer_factory.hpp:77] Creating layer loss3/classifier_loss3/classifier_0_split
I0422 19:39:10.459053 1975033856 net.cpp:84] Creating Layer loss3/classifier_loss3/classifier_0_split
I0422 19:39:10.459058 1975033856 net.cpp:406] loss3/classifier_loss3/classifier_0_split <- loss3/classifier
I0422 19:39:10.459061 1975033856 net.cpp:380] loss3/classifier_loss3/classifier_0_split -> loss3/classifier_loss3/classifier_0_split_0
I0422 19:39:10.459067 1975033856 net.cpp:380] loss3/classifier_loss3/classifier_0_split -> loss3/classifier_loss3/classifier_0_split_1
I0422 19:39:10.459074 1975033856 net.cpp:380] loss3/classifier_loss3/classifier_0_split -> loss3/classifier_loss3/classifier_0_split_2
I0422 19:39:10.459080 1975033856 net.cpp:122] Setting up loss3/classifier_loss3/classifier_0_split
I0422 19:39:10.459084 1975033856 net.cpp:129] Top shape: 100 30 (3000)
I0422 19:39:10.459087 1975033856 net.cpp:129] Top shape: 100 30 (3000)
I0422 19:39:10.459091 1975033856 net.cpp:129] Top shape: 100 30 (3000)
I0422 19:39:10.459095 1975033856 net.cpp:137] Memory required for data: 5611712824
I0422 19:39:10.459098 1975033856 layer_factory.hpp:77] Creating layer loss3/loss3
I0422 19:39:10.459105 1975033856 net.cpp:84] Creating Layer loss3/loss3
I0422 19:39:10.459108 1975033856 net.cpp:406] loss3/loss3 <- loss3/classifier_loss3/classifier_0_split_0
I0422 19:39:10.459112 1975033856 net.cpp:406] loss3/loss3 <- label_data_1_split_6
…
